models/AnomalyDetector_20250715_160639.pth (torch, 85807 bytes, 11 tensors)

network.0.weight f4 [64, 41]
0	0x3dd112e0	0.10208678
1	0x3eb07a22	0.3446818
2	0xbf12502e	-0.57153594
3	0xbe2655ad	-0.1624362
4	0xbd21ad51	-0.039471928
5	0xbef4f9ca	-0.47846824
6	0xbd4a62f1	-0.049410764
7	0x3d38a4fb	0.045079213
8	0xbd205eb6	-0.039152823
9	0xbf069287	-0.52567333
10	0x3d022d48	0.031781465
11	0xbe88c203	-0.2671052
12	0xbde1f392	-0.110327855
13	0x3d8a65e1	0.06757713
14	0x3e49c3ad	0.1970355
15	0x3e20ff94	0.15722495
16	0xbea14285	-0.31496063
17	0x3dcda5b8	0.10041374
18	0xbdf19949	-0.11796815
19	0xbad8adcc	-0.0016531288
20	0x3e80accd	0.25131837
21	0x3d888f7e	0.06667994
22	0x3e37f587	0.17964755
23	0xbd130cda	-0.035900928
24	0x3d6eb8ec	0.058281824
25	0x3d5b65b8	0.053563803
26	0xbdcbb5d8	-0.09946793
27	0xbe5d2bcd	-0.2159874
28	0x3e3399a5	0.1753908
29	0xbcdfda50	-0.02732578
30	0xbc4c075b	-0.012452926
31	0xbddbae4e	-0.10726605
32	0x3e0959cb	0.1341316
33	0x3e69340e	0.22773764
34	0xbe15f628	-0.14644682
35	0xbe546a7d	-0.20743747
36	0x3d9e2ca1	0.07723356
37	0x3c972e7f	0.018454788
38	0xbdc4f4f3	-0.09617033
39	0x3d3d83ab	0.046268146
40	0x3e138802	0.14407352
41	0x3da9e4de	0.08295606
42	0x3d5b52f6	0.053545915
43	0xbea002cc	-0.31252134
44	0x3d36d32d	0.044634987
45	0x38d3c6cf	0.00010098295
46	0x3d449f30	0.048003376
47	0xbd2499b9	-0.040185664
48	0x3d0e2a92	0.034708567
49	0x3d8917d5	0.06693999
50	0xbf324237	-0.69632286
51	0x3dce7ae9	0.10082037
52	0x3ea034d3	0.31290302
53	0xbe71940b	-0.2359163
54	0x3da3b4dd	0.07993481
55	0x3e8c8a7d	0.27449408
56	0x3e8895b4	0.26676714
57	0x3dcb3e7b	0.099240266
58	0xbe19d299	-0.15021743
59	0x3d3f5f00	0.04672146
60	0x3dcd4862	0.100235716
61	0x3e695906	0.22787866
62	0xbc10ba72	-0.0088335145
63	0x3dd34659	0.10316152
64	0xbe463675	-0.19356711
65	0xbde66370	-0.11249435
66	0xbdabd952	-0.0839106
67	0x3c7afc94	0.015319008
68	0xbe030578	-0.12795055
69	0x3e50462e	0.20339271
70	0x3d94d84f	0.0726782
71	0x3deb1580	0.1147871
72	0xbda18596	-0.078868076
73	0x3cfc79f4	0.03081987
74	0xbe80aece	-0.25133365
75	0x3c1359a7	0.008993543
76	0xbe82c431	-0.25540307
77	0x3c76d8aa	0.015066305
78	0xbd4bcef4	-0.049757913
79	0x3ce7663f	0.028246997
80	0x3d8983be	0.06714581
81	0x3d161dd0	0.036649525
82	0x3e98871a	0.29790574
83	0xbda4c75d	-0.08045838
84	0x3d0d87ba	0.034553267
85	0xbd984277	-0.07434552
86	0xbeaeb76a	-0.3412431
87	0xbd4ea27a	-0.05044792
88	0xbbff404f	-0.0077896486
89	0x3d82c260	0.0638473
90	0x3e8a3407	0.2699282
91	0xbf1c56ac	-0.6106975
92	0x3dcf7f6a	0.10131724
93	0x3e703de1	0.23461105
94	0xbe65f450	-0.22456479
95	0xbdecac60	-0.115563154
96	0xbdb5b6e4	-0.08872774
97	0x3f05fea7	0.52341694
98	0x3dbc7e69	0.09203798
99	0x3db9d053	0.09072938
100	0x3df4dbe6	0.11956005
101	0xbd3804a0	-0.044926286
102	0x3d6940bb	0.056946497
103	0xbdf8b200	-0.12143326
104	0xbd5d1f66	-0.053985022
105	0x3daa6d18	0.08321589
106	0x3d97ff71	0.074217685
107	0x3e086535	0.13319857
108	0xbecc59c0	-0.39912224
109	0xbea451f7	-0.32093784
110	0xbe83c97d	-0.2573966
111	0x3b8c3d25	0.00427975
112	0x3e55b9f1	0.20871712
113	0x3dc69bf9	0.09697718
114	0x3da052d6	0.078283
115	0x3d1f7a8a	0.03893522
116	0x3dc15d12	0.0944158
117	0x3ca7bae4	0.020474859
118	0xbef7f02b	-0.4842542
119	0xbb915273	-0.0044348775
120	0x3de2f4be	0.11081837
121	0xbf04767f	-0.5174331
122	0xbd9ddf02	-0.07708551
123	0x3cf9d4a5	0.030496905
124	0x3e5d8408	0.21632397
125	0xbe40095e	-0.18753573
126	0xbea120b0	-0.3147025
127	0xbd88a316	-0.06671731
128	0xbd90638e	-0.070502385
129	0x3c8ae172	0.016953204
130	0x3e1a9bf9	0.15098561
131	0x3d8955b4	0.067058
132	0xbb16eab2	-0.0023028073
133	0xbd73cd1b	-0.059521776
134	0xbe0bd816	-0.13656649
135	0x3e2534d3	0.16133432
136	0x3db7fe14	0.089840084
137	0x3ea4df53	0.32201633
138	0x3ed32eb9	0.41246584
139	0x3d57e31a	0.052706815
140	0xbe16a1ef	-0.1471021
141	0xbcd0ea25	-0.025502274
142	0xbe0ad9c6	-0.13559636
143	0x3e3ceef3	0.18450527
144	0x3d6cedb2	0.05784387
145	0xbd5b1725	-0.05348887
146	0x3e857715	0.26067415
147	0x3df09cb2	0.11748637
148	0x3e907506	0.28214282
149	0xbe1cb119	-0.15301932
150	0x3d55dd3f	0.05221295
151	0x3e4abb95	0.1979812
152	0xbe91b6ca	-0.2845977
153	0x3c953315	0.018212834
154	0xbdfb1fa7	-0.122618966
155	0x3d694437	0.05694982
156	0x3e941ec2	0.28929716
157	0xbcea96c3	-0.028636342
158	0xbd2f4c68	-0.042797476
159	0x3d632549	0.05545548
160	0x3d2a91b5	0.041642863
161	0x3df9e59e	0.12201999
162	0x3d302078	0.042999715
163	0x3e3e3a96	0.18577036
164	0x3cc8b45c	0.024500065
165	0x3ee11c48	0.4396689
166	0x3c860853	0.016361391
167	0xbe82fb0a	-0.25582153
168	0xbd21a85d	-0.039467204
169	0xbdb986a9	-0.090588875
170	0x3c4be1f9	0.012444013
171	0x3dea0de7	0.11428433
172	0xbd1c5841	-0.038170103
173	0xbf2cc755	-0.67491657
174	0xbd033545	-0.032033224
175	0x3cf0a7dd	0.029376918
176	0xbe1a6bb9	-0.15080155
177	0xbd74e3e4	-0.059787646
178	0x3b73171a	0.0037092627
179	0x3e16bbc0	0.14720058
180	0x3ba1586b	0.0049238703
181	0x3b5ee083	0.003400833
182	0xbd06f88f	-0.032951888
183	0x3ca42233	0.020035839
184	0xbc087867	-0.008329487
185	0x3d17d6a7	0.037069943
186	0x3e299e03	0.16564183
187	0x3e8dfa69	0.2773011
188	0x3d5d4ff1	0.054031316
189	0x3e9472e0	0.28993893
190	0x3e4f25b9	0.20229234
191	0x3dae4ad1	0.08510364
192	0x3d08cdbb	0.033399325
193	0x3d104904	0.035225883
194	0x3dea4c69	0.11440355
195	0x3c659e77	0.014014832
196	0x3e6b9baf	0.23008607
197	0x3ddd3337	0.10800784
198	0xbe81f0ef	-0.2537913
199	0xbe884ea5	-0.266225
200	0x3e9e5fec	0.30932558
201	0x3e010c1f	0.1260228
202	0x3eb41c83	0.35178003
203	0x3d13acde	0.03605353
204	0x3db34fb7	0.08755439
205	0x3cb31b2a	0.021863539
206	0x3dfc3594	0.12314907
207	0x3ea80eda	0.3282383
208	0xbdf50c65	-0.11965255
209	0xbf795fbd	-0.9741171
210	0xbbb3d648	-0.005488191
211	0xbd64c766	-0.055854224
212	0x3e157252	0.14594391
213	0x3e42bd28	0.1901747
214	0xbf5babad	-0.8580883
215	0xbd3eb6c3	-0.046561014
216	0x3e6c6e48	0.23088944
217	0x3b965ab6	0.0045884503
218	0x3dd9ccc5	0.1063476
219	0x3e080253	0.13282137
220	0x3e6ed80d	0.23324604
221	0x3ce47549	0.027887957
222	0xbd90c013	-0.07067885
223	0x3e38f21b	0.18061106
224	0x3dd1adc8	0.10238224
225	0x3eab6384	0.33474362
226	0xbddb507e	-0.10708712
227	0x3e982992	0.29719216
228	0x3e27621c	0.1634602
229	0x3dc2defa	0.09515186
230	0x3e440e51	0.19146086
231	0x3e2b6b57	0.16740166
232	0xbd7866c3	-0.060644876
233	0x3dc2a7ca	0.095046595
234	0xbde34551	-0.110972054
235	0x3cc754be	0.0243324
236	0xbe89f241	-0.26942638
237	0x3e2d53cb	0.16926496
238	0x3e848ba4	0.25887787
239	0xbe8dd73d	-0.27703276
240	0xbe8389d8	-0.25691104
241	0x3e250e99	0.1611885
242	0xbe291b92	-0.16514423
243	0x3e4633c5	0.19355686
244	0x3ca9faf7	0.020749552
245	0x3d813474	0.06308833
246	0x3c8ab134	0.0169302
247	0xbe29a94d	-0.1656849
248	0x3cb5aa3f	0.022175906
249	0x3e06611b	0.1312298
250	0xbe826e94	-0.2547499
251	0x3e879eff	0.26488492
252	0x3db4c742	0.08827068
253	0x3d982390	0.07428658
254	0xbd447f0b	-0.04797272
255	0xbe57c5a2	-0.21071485

network.0.bias f4 [64]
0	0xbdbc6612	-0.09199156
1	0xbdebfc87	-0.11522775
2	0xbd541f10	-0.051787436
3	0xbe4c652c	-0.19960469
4	0xbddaeac8	-0.10689312
5	0xbd87e79f	-0.06635975
6	0xbe931a1a	-0.2873085
7	0x3c63ad6c	0.0138963275
8	0xbb997006	-0.0046825437
9	0xbe57ebe4	-0.21086079
10	0xbe681750	-0.22665143
11	0xbe258048	-0.16162217
12	0xbe790e02	-0.2432175
13	0xbd0f5b9e	-0.034999482
14	0xbe540933	-0.20706634
15	0xbdf53d87	-0.11974626
16	0xbe2ba0c0	-0.1676054
17	0xbe2b5b5c	-0.1673407
18	0xbeaada53	-0.33369693
19	0xbdaeca3d	-0.08534668
20	0xbeaa2c2e	-0.3323683
21	0xbe27887b	-0.16360657
22	0xbe0f6b2e	-0.1400573
23	0x3d8eda80	0.06975269
24	0xbead5349	-0.33852604
25	0xbdb43ad1	-0.08800281
26	0xbe836b7a	-0.25667936
27	0x3d5051ec	0.050859377
28	0xbe895ea1	-0.2683001
29	0xbe81d068	-0.25354314
30	0xbe2f6a4e	-0.17130396
31	0xbeacde4e	-0.33763355
32	0xbe9dd30f	-0.30825087
33	0xbdb91cc5	-0.090386905
34	0xbe8ee8bf	-0.27911946
35	0xbe1eb86c	-0.15500039
36	0x3cae5f65	0.021285722
37	0xbd2c3050	-0.042038262
38	0xbe73a001	-0.23791505
39	0x3d0668aa	0.03281466
40	0xbe736fab	-0.23773067
41	0xbe086a5e	-0.13321826
42	0xbde20911	-0.110368855
43	0xbe5d8bb3	-0.21635322
44	0xbea474fa	-0.32120496
45	0xbd0ee1ac	-0.034883186
46	0xbea9d2a9	-0.33168533
47	0xbe439d4e	-0.19102976
48	0xbde5ff96	-0.1123039
49	0xbdb7cf95	-0.0897514
50	0xbe91e431	-0.2849441
51	0xbec814a9	-0.39078262
52	0xbe9ff2d0	-0.3123994
53	0xbe9feaa8	-0.31233716
54	0xbe626d27	-0.22111951
55	0xbcc518e2	-0.024059717
56	0xbe16e276	-0.14734825
57	0xbe38d599	-0.18050231
58	0xbe0c75e4	-0.13716847
59	0xbe9de8f4	-0.30841792
60	0xba3ae30a	-0.00071291684
61	0xbe4fb29d	-0.2028298
62	0xbe99dc11	-0.3005071
63	0xbdebecbf	-0.11519765

network.3.weight f4 [64, 64]
0	0x3c2ff649	0.010739871
1	0xbec4d2c4	-0.3844205
2	0x3e0a156c	0.13484734
3	0xbeb21441	-0.34781078
4	0x3d9e4711	0.077283986
5	0xbdb62a65	-0.08894805
6	0x3a2d8286	0.0006618876
7	0xbd04d6bc	-0.03243135
8	0xbbf3bac2	-0.0074380348
9	0x3e1f3e9b	0.15551226
10	0xbec1feab	-0.3788961
11	0x3e6fef92	0.23431233
12	0xbd7eb39a	-0.062183
13	0xbe2efbe1	-0.17088272
14	0x3cd8cf0a	0.026465911
15	0x3e3fcfa6	0.18731555
16	0x3c8c3ff6	0.017120343
17	0xbe5695f1	-0.20955636
18	0x3c65667d	0.014001486
19	0x3e8733a9	0.264066
20	0x3e2c5164	0.16827923
21	0x3e7b27e9	0.24526943
22	0xbdd1e711	-0.102491505
23	0xbd3fffc0	-0.04687476
24	0xbce95ded	-0.02848717
25	0xbe050684	-0.12990767
26	0xbd829079	-0.06375212
27	0xbe1e6278	-0.1546725
28	0xbc038cb1	-0.008029149
29	0xbc5d532e	-0.013508601
30	0xbe4031ee	-0.18769047
31	0xbe754ae0	-0.23954344
32	0x3e4844a5	0.19557436
33	0x3dc7ecb8	0.097619474
34	0xbe754f7a	-0.23956099
35	0x3c85a065	0.016311834
36	0xbd34ba6c	-0.0441231
37	0xbd0f0980	-0.03492117
38	0x3cb3f7ec	0.021968804
39	0xbdba335f	-0.090918295
40	0xbdc3f134	-0.0956749
41	0x3df7051c	0.120615214
42	0x3e554d6f	0.2083032
43	0x3e3bc6dd	0.18337579
44	0xbdff3217	-0.12460726
45	0x3e4127e4	0.18862873
46	0xbe88ea9b	-0.2674149
47	0x3da3886e	0.07985006
48	0x3d7cf04a	0.061752595
49	0x3e86e711	0.26348165
50	0x3d315c96	0.043301187
51	0xbe7dc494	-0.2478202
52	0x3cfeee53	0.031119501
53	0x3e18c8a2	0.14920285
54	0x3e9884f5	0.29788938
55	0xbe019db7	-0.1265782
56	0xbe2908ad	-0.16507216
57	0x3e569403	0.209549
58	0x3e02730e	0.12739202
59	0x3e7371ca	0.23773876
60	0x3e51b484	0.20479017
61	0x3d887968	0.066637814
62	0x3c76528d	0.01503433
63	0xbe502c50	-0.20329404
64	0x3eacb508	0.33731866
65	0xbbba468a	-0.0056846784
66	0x3d488aa4	0.048960343
67	0x3c709e51	0.014686183
68	0x3e9fabce	0.31185764
69	0x3dc0aaea	0.09407599
70	0xbca61a5c	-0.020276241
71	0x3dc614b2	0.09671916
72	0xb9981c78	-0.0002901291
73	0xbe3ea2e0	-0.1861682
74	0x3e9a0c98	0.30087733
75	0x3e4748ad	0.19461317
76	0x3e167bc3	0.14695649
77	0x3dc8db51	0.09807456
78	0xbd53629b	-0.05160771
79	0xbe133939	-0.14377297
80	0xbcd96de0	-0.02654165
81	0xbe606f8c	-0.21917552
82	0xbe80b83c	-0.2514056
83	0xbdfa4b1a	-0.12221356
84	0xbeb00829	-0.34381226
85	0x3e20dffd	0.15710445
86	0x3c25640a	0.010094652
87	0xbdb0c7ba	-0.08631845
88	0xbd2a0d00	-0.041516304
89	0x3dfb7b1e	0.12279342
90	0xbe6458b1	-0.22299458
91	0xbd142cc5	-0.036175508
92	0x3dcceae1	0.10005737
93	0x3c1a9742	0.009435477
94	0x3e45f73c	0.19332594
95	0xbe5f5acc	-0.2181198
96	0xbe7668eb	-0.2406346
97	0x3da0416c	0.07824978
98	0x3e62af3a	0.22137156
99	0xbd9d87fb	-0.07691952
100	0xbd3ca378	-0.046054333
101	0xbd8abc8c	-0.06774244
102	0xbeac1ffc	-0.33618152
103	0xbbeed36e	-0.007288388
104	0x3cbe80d7	0.023254795
105	0x3e0e932e	0.13923332
106	0x3cc1476d	0.023593629
107	0xbd642d2e	-0.05570715
108	0x3e51dcdf	0.20494412
109	0xbd6951ce	-0.05696278
110	0xbdd9754d	-0.106180765
111	0x3d8f42b8	0.069951475
112	0xbd8db668	-0.06919557
113	0x3d12eced	0.03587048
114	0xbe244cdf	-0.16044949
115	0xbe20ada5	-0.1569124
116	0xbe721e77	-0.23644434
117	0xbe95561d	-0.29167262
118	0xbea13547	-0.3148596
119	0x3e014c50	0.12626767
120	0x3e624e9e	0.22100303
121	0x3e332fb4	0.17498666
122	0xbe34265f	-0.17592762
123	0xbe97d077	-0.29651234
124	0xbc8ad2e2	-0.01694626
125	0xbe5b58c1	-0.21420576
126	0xbe0de78f	-0.13857864
127	0xbb21295c	-0.0024591302
128	0xbd50483f	-0.05085015
129	0x3ecd7be2	0.40133578
130	0x3df33652	0.11875595
131	0x3e4ba598	0.19887388
132	0xbe92820e	-0.2861485
133	0x3d64f582	0.055898197
134	0x3cf8a517	0.030352158
135	0x3e666e2d	0.22502966
136	0xbeff60f6	-0.49878663
137	0x3d987f06	0.07446103
138	0x3ca397ff	0.019969938
139	0xbed8d60f	-0.42350814
140	0xbd80b12c	-0.06283793
141	0x3c95fa94	0.018307962
142	0x3e8f3565	0.27970424
143	0x3d9cab6e	0.07649885
144	0xbd8b8ce5	-0.06813983
145	0x3de1d29c	0.11026499
146	0x3a80856d	0.0009805389
147	0xbeb5b4e4	-0.3548957
148	0x3de08ccf	0.10964357
149	0xbe287ce5	-0.16453893
150	0x3b8f51e6	0.0043737767
151	0xbcf8ea60	-0.030385196
152	0x3db2c3cc	0.087287515
153	0xbdf8eabc	-0.12154147
154	0x3e53d255	0.20685704
155	0x3d4b56c4	0.049643293
156	0x3e33d840	0.17562962
157	0xbd4e2907	-0.050332095
158	0xbbc2ad2b	-0.0059410534
159	0x3ec272b5	0.3797814
160	0x3e497fbb	0.19677632
161	0xbeaca57f	-0.33720013
162	0x3ebebbdf	0.3725271
163	0x3daf38c6	0.085557505
164	0xbd8ef93c	-0.069811314
165	0x3ca5b102	0.020226005
166	0xbb0089da	-0.0019613416
167	0x3e008bf0	0.12553382
168	0x3eb836fc	0.3597945
169	0xbe25edf3	-0.16204052
170	0xbdf389da	-0.118915275
171	0x3e8a6922	0.27033335
172	0x3e9392ce	0.2882294
173	0xbe7bc1d2	-0.24585655
174	0x3e089818	0.13339269
175	0x3e2ae44f	0.16688655
176	0xbb99795b	-0.004683656
177	0x3cd3a7ab	0.025836786
178	0xb995d7a0	-0.00028580148
179	0x3d93ea03	0.072223686
180	0x3e424153	0.18970232
181	0x3dbc6e85	0.092007674
182	0xbd0d4863	-0.03449286
183	0x3cc95057	0.024574442
184	0xbdd788e6	-0.10524158
185	0xbdd16696	-0.10224645
186	0x3e17a0d2	0.14807442
187	0xbe0707ce	-0.13186571
188	0x3e4cf010	0.20013452
189	0x3cef2110	0.02919057
190	0x3d9976f9	0.07493395
191	0xbe23cd09	-0.15996183
192	0x3ea0b696	0.31389302
193	0xbd49bbb3	-0.04925127
194	0x3a3efc71	0.00072855415
195	0x3e4a6601	0.19765474
196	0x3e351591	0.17684008
197	0xbc7a43e8	-0.015274979
198	0xbd8c8c01	-0.06862641
199	0x3d41870d	0.047247935
200	0x3aef9761	0.0018279367
201	0x3e3f3249	0.18671526
202	0x3e02ecda	0.12785664
203	0x3c159904	0.00913072
204	0x3e34474b	0.17605321
205	0x3d884b8b	0.06655034
206	0x3cf6d9c0	0.030133128
207	0xbc9bfab8	-0.01904045
208	0xbd9436b0	-0.07236993
209	0xbe3343f9	-0.17506398
210	0xbdb08985	-0.0861998
211	0xbeb9c503	-0.3628312
212	0x3d06b8eb	0.032891195
213	0xbd0cd322	-0.03438104
214	0xbeb81526	-0.35953635
215	0x3d9e04f9	0.07715792
216	0xbd9472f7	-0.0724849
217	0x3ea5ef90	0.32409334
218	0x3d012f8c	0.031539485
219	0x3b90685d	0.0044069723
220	0x3d13f42a	0.036121525
221	0xbe9748c5	-0.29547706
222	0x3e1002dd	0.14063592
223	0xbe8fdbdc	-0.28097427
224	0xbe2c3e84	-0.16820723
225	0x3bd9cf1a	0.006647003
226	0x3debbac0	0.11510229
227	0xbebeacab	-0.3724111
228	0xbebfd59e	-0.37467664
229	0xbdb9bb08	-0.090688765
230	0x3d3bbecd	0.04583626
231	0x3de13f36	0.10998385
232	0x3df99f1d	0.121885516
233	0xbe53901c	-0.20660442
234	0x3e1dd880	0.1541462
235	0x3e193685	0.14962204
236	0x3eebe57c	0.4607352
237	0x3d7781ef	0.06042665
238	0x3e67f828	0.22653258
239	0xbd0bb044	-0.034103647
240	0xbe6bfbb3	-0.23045234
241	0xbd99b047	-0.07504325
242	0x3ccee367	0.025254918
243	0xbd004459	-0.03131518
244	0xbd371167	-0.04469433
245	0xbd6fc3e7	-0.058536436
246	0x3dc22e5b	0.09481498
247	0x3e5f596a	0.21811453
248	0xbcdaf3cd	-0.026727581
249	0xbdc52f6e	-0.09628187
250	0x3ce370df	0.027763782
251	0xbde73fba	-0.11291452
252	0x3d0de88e	0.03464561
253	0x3c22acfb	0.009928937
254	0xbdd22b65	-0.10262183
255	0x3d44de58	0.048063606

network.3.bias f4 [64]
0	0xbe6e8d10	-0.23295999
1	0xbd01c264	-0.031679526
2	0xbe93ed2d	-0.28891888
3	0xbca6506d	-0.020302022
4	0x3e02a62a	0.12758699
5	0x3e034484	0.12819105
6	0x3e5d3d99	0.21605529
7	0xbd2baaf9	-0.0419111
8	0x3e10c946	0.1413928
9	0x3d2bf178	0.04197833
10	0xbcc9e0e8	-0.024643376
11	0xbe06387a	-0.13107482
12	0x3b5a4b0c	0.0033308892
13	0x3e1ebb9d	0.15501256
14	0x3d838b85	0.064230956
15	0x3d0da84a	0.03458432
16	0x3d516bac	0.051128075
17	0xbe06e7fc	-0.13174433
18	0xbc3e5d35	-0.011618902
19	0x3d05828a	0.032595195
20	0xbd743564	-0.05962123
21	0xbd40bce0	-0.047055125
22	0xbd34985a	-0.044090606
23	0x3d85b772	0.0652913
24	0xbe0ac323	-0.13551001
25	0xbdcd0365	-0.10010413
26	0xbe3056a7	-0.17220555
27	0x3d8ae751	0.06782401
28	0x3d4e9582	0.05043555
29	0x3bf1103d	0.007356672
30	0xbe422673	-0.1895998
31	0x3d4bfd62	0.04980219
32	0xbc8326b9	-0.016009675
33	0x3c9d2233	0.019181347
34	0xbd9d6190	-0.07684624
35	0xbd0e3426	-0.0347177
36	0xbd2e76ff	-0.042593952
37	0xbe4dd195	-0.2009948
38	0x3a38a91d	0.0007044243
39	0x3e171725	0.14754923
40	0xbe494cd5	-0.19658215
41	0x3e01c805	0.12673958
42	0xbd2850f0	-0.041092813
43	0xbe16a7d2	-0.14712456
44	0x3e37fe16	0.1796802
45	0xbe637805	-0.22213753
46	0xbe056d16	-0.13029894
47	0xbe16f329	-0.14741196
48	0xbe024c73	-0.12724476
49	0xbda2d0d0	-0.07949984
50	0xbdebdf3b	-0.11517187
51	0xbcb1eef7	-0.021720393
52	0xbd1b56a6	-0.03792443
53	0x3cf5adf9	0.029990183
54	0x3ca827b9	0.020526754
55	0x3e1be797	0.15225063
56	0xbdd537e1	-0.10411049
57	0xbe442c3f	-0.19157504
58	0x3dda791c	0.10667631
59	0x3e29812b	0.1655318
60	0xbcbabda3	-0.022795504
61	0xbda3164b	-0.079632364
62	0x3d75e508	0.060032874
63	0x3e728466	0.23683318

network.6.weight f4 [64, 64]
0	0x3df09268	0.11746675
1	0xbdefd11f	-0.117098086
2	0xbe4d88f0	-0.20071769
3	0xbe7ef2f8	-0.24897373
4	0x3e014e5a	0.12627545
5	0x3ecf8b6e	0.40536064
6	0x3eba2b09	0.36360958
7	0xbd9f96f3	-0.07792463
8	0x3e1c7860	0.15280294
9	0x3e2791c8	0.16364205
10	0xbe241d4a	-0.16026798
11	0x3c77a8ad	0.015115899
12	0xbd9de1f4	-0.07709113
13	0xbd84f906	-0.0649281
14	0xbddf097d	-0.108904816
15	0x3e0d03d9	0.13770999
16	0x3db02e7e	0.08602618
17	0xbe8c0cc9	-0.27353504
18	0xbd036cec	-0.032086298
19	0xbb654719	-0.0034985004
20	0x3e4ff6b0	0.20308948
21	0xbdb8d543	-0.090250514
22	0x3d572b09	0.052531276
23	0xbcd43f3c	-0.025909059
24	0xbe554093	-0.20825414
25	0x3e8d30c8	0.2757628
26	0xbc936384	-0.017991789
27	0xbe586c00	-0.21134949
28	0x3e38e01e	0.18054244
29	0xbd9b85d8	-0.07593888
30	0xbdf7ac30	-0.12093389
31	0xbd44cbba	-0.04804585
32	0x3c885b88	0.016645208
33	0xbed2a839	-0.4114397
34	0xbec3594b	-0.38154063
35	0xbe575f7f	-0.21032523
36	0xbefc980d	-0.49334756
37	0x3e69ac13	0.22819547
38	0xbd2811ec	-0.041032717
39	0x3e00bed6	0.12572798
40	0x3e1b3c76	0.15159783
41	0x3e35b947	0.17746459
42	0xbebd4937	-0.3696992
43	0x3e3d2edf	0.18474911
44	0x3d3f9c12	0.0467797
45	0x3d7496ce	0.05971413
46	0xbe9a9463	-0.30191335
47	0x3e423d04	0.18968588
48	0xbee04398	-0.4380157
49	0xbec51da1	-0.38499168
50	0xbe946db7	-0.28989956
51	0x38c89d6e	9.566067e-05
52	0x3d83dcdc	0.0643861
53	0xbed2c47d	-0.41165534
54	0xbe877ea4	-0.26463807
55	0x3e165e76	0.14684471
56	0x3e601196	0.21881709
57	0xbc29cc23	-0.010363611
58	0x3d8e0cd6	0.06936042
59	0x3e4036b1	0.18770863
60	0xbe3816dd	-0.17977472
61	0x3d5a3382	0.053271778
62	0x3dadc191	0.084841855
63	0x3e39b70c	0.18136233
64	0xbd82b508	-0.06382185
65	0xbca0f91e	-0.019650038
66	0xbea5ac66	-0.32358092
67	0xbe20066e	-0.15627453
68	0xbb1007ab	-0.0021977227
69	0x3e8eed74	0.27915537
70	0x3e990bcc	0.29891813
71	0x3c875837	0.016521556
72	0x3df973ab	0.12180265
73	0x3c2baa26	0.010477578
74	0xbb97bc70	-0.004630618
75	0x3d66ea6b	0.056375902
76	0x3e05ae21	0.13054706
77	0x3e22d315	0.15900834
78	0xbe2c461f	-0.16823624
79	0x3e041ac7	0.1290084
80	0x3d8d2422	0.068916574
81	0xbe8eb40d	-0.27871743
82	0xbb3b2a9e	-0.0028559337
83	0xbe35ed01	-0.17766191
84	0x3d5b8236	0.053590976
85	0x3e54def1	0.2078817
86	0x3c99c684	0.018771417
87	0xbd166292	-0.036715098
88	0xbf001972	-0.50038826
89	0x3e95e7b5	0.2927834
90	0x3e596263	0.21228938
91	0xbddc9f54	-0.10772577
92	0x3d5395e6	0.051656626
93	0xbda109ea	-0.07863219
94	0xbe2e9b7f	-0.17051505
95	0xbd5d78d3	-0.054070305
96	0xbc4c6809	-0.012475976
97	0xbe17893e	-0.14798447
98	0xbdd1b58c	-0.102397054
99	0xbe2937cf	-0.16525196
100	0xbe18f201	-0.14936067
101	0x3e80cf70	0.25158262
102	0xbcf80f1e	-0.030280646
103	0x3e146806	0.14492807
104	0x3e45af79	0.19305219
105	0x3ab18a73	0.0013545289
106	0xbe067589	-0.13130774
107	0x3e06fa65	0.13181455
108	0xbd508498	-0.0509077
109	0xbd128f73	-0.035781335
110	0xbe03ac78	-0.1285876
111	0x3d84bdcd	0.06481514
112	0xbd851786	-0.06498627
113	0xbe8b1fd5	-0.27172723
114	0xbe42497d	-0.18973346
115	0x3d998c9e	0.07497524
116	0xbd49f3e9	-0.049304876
117	0xbde37938	-0.11107105
118	0xbe6dd18e	-0.2322447
119	0x3e0f99bb	0.14023487
120	0x3e805982	0.2506829
121	0xbc582091	-0.013191358
122	0x3e212959	0.15738429
123	0x3dbc162e	0.09183918
124	0xbe44f90b	-0.19235627
125	0xbd952410	-0.07282269
126	0x3c9b2113	0.01893667
127	0x3d9313ea	0.07181533
128	0x3df31baa	0.11870511
129	0xbdd32986	-0.10310654
130	0xbd6d770d	-0.057974864
131	0xbecfdde7	-0.40598986
132	0x3c57e3ed	0.0131769
133	0x3d0cc223	0.03436483
134	0x3e266abd	0.16251655
135	0xbe3b9bb8	-0.1832112
136	0x3daa0866	0.08302383
137	0x3e083cae	0.13304397
138	0xbda78ccb	-0.08181151
139	0x3e1ff144	0.1561938
140	0x3d005708	0.031333
141	0x3e641466	0.22273406
142	0xbdf6df79	-0.12054343
143	0x3d9529bd	0.072833516
144	0x3e9c6742	0.3054753
145	0xbde497d4	-0.111617714
146	0xbe31f0d3	-0.17377023
147	0xbc59cbca	-0.013293216
148	0x3e140fc0	0.14459133
149	0xbdd6c859	-0.10487432
150	0xbdf04cf6	-0.11733429
151	0xbd0ab60a	-0.033865012
152	0xbea117f1	-0.31463578
153	0x3e26305d	0.16229387
154	0x3d94621c	0.072452754
155	0xbe6fc66d	-0.23415537
156	0xbda723f4	-0.081611544
157	0xbea4b7b3	-0.321714
158	0xbc112bf3	-0.008860576
159	0xbe04e370	-0.12977386
160	0xbe6350ea	-0.22198835
161	0xbe4f359d	-0.20235296
162	0xbe6ba3ed	-0.23011751
163	0xbcbb95c1	-0.022898557
164	0xbe5d5c16	-0.21617159
165	0x3de389ff	0.11110305
166	0xbe74f160	-0.23920202
167	0x3e74dc77	0.23912226
168	0x3e65025c	0.22364181
169	0x3e811359	0.25210074
170	0xbe31a5b5	-0.17348368
171	0x3d5ec336	0.054385386
172	0xbd8c9857	-0.06864994
173	0x3d835510	0.06412709
174	0xbe032fc2	-0.12811187
175	0x3e22e76e	0.15908596
176	0xbe7879a8	-0.24265158
177	0xbe9f1292	-0.31068856
178	0xbe38ae75	-0.180353
179	0x3e59f8c7	0.21286307
180	0x3e43d167	0.1912285
181	0xbe41679f	-0.18887185
182	0xbe96ee0d	-0.29478493
183	0x3e4ac123	0.19800238
184	0x3bbee5a0	0.0058257133
185	0xbe3a8890	-0.18216157
186	0x3c437fe5	0.011932348
187	0x3db4d7de	0.08830236
188	0xbe068cd0	-0.13139653
189	0x3e2aaa31	0.16666485
190	0x3c2b3e8e	0.010451926
191	0x3e8d64dc	0.27616012
192	0x3c85a43d	0.016313666
193	0xbced3d63	-0.028959936
194	0xbe185f55	-0.14880116
195	0x3b8ed5a8	0.004358966
196	0xbd42fd13	-0.04760463
197	0x3e2d6e86	0.16936693
198	0xbe4ce365	-0.20008619
199	0x3d465b8b	0.048427146
200	0xbead7830	-0.33880758
201	0xbe3ba735	-0.18325503
202	0x3df4cc85	0.119530715
203	0xbe006faa	-0.12542596
204	0x3df49658	0.11942738
205	0xbe9da1a8	-0.30787396
206	0x3e1c052e	0.15236351
207	0xbe2f0f06	-0.17095575
208	0xbc98b804	-0.018642433
209	0x3c516d67	0.012782431
210	0x3ca49829	0.020092087
211	0x3e40f9b3	0.18845253
212	0xbd4a91a5	-0.049455304
213	0xbe396958	-0.18106592
214	0xbc14b6a5	-0.009076749
215	0x3e2f5df2	0.17125681
216	0x3cc696e3	0.02424187
217	0xbde644d6	-0.11243598
218	0xbd75d2f9	-0.060015652
219	0x3cde50f0	0.027138203
220	0xbe40346c	-0.18769997
221	0xbc813da4	-0.015776463
222	0xbd4a693c	-0.049416766
223	0x3db2fc79	0.087395616
224	0xbca628d2	-0.020283137
225	0xbd3bd5b5	-0.045858104
226	0xbd920d82	-0.07131483
227	0x3d4fb555	0.05071004
228	0x3bc19c96	0.005908559
229	0xbddc7702	-0.107648864
230	0x3dc7aa7b	0.097493134
231	0xbd56486e	-0.052315168
232	0x3d6ade43	0.05734087
233	0xbe852333	-0.26003417
234	0x3e0966fe	0.13418195
235	0xbe93ba31	-0.2885299
236	0xbe891656	-0.26774853
237	0x3d2b10f2	0.041764207
238	0x3d5ac721	0.05341256
239	0xbe54818c	-0.20752543
240	0x3db21221	0.08694864
241	0x3d64fbc3	0.05590416
242	0x3e73f14d	0.23822518
243	0xbd84b7f9	-0.064804025
244	0xbddbd096	-0.10733144
245	0x3e5b0ae2	0.2139087
246	0xbd1306e5	-0.035895247
247	0xbe4d3ded	-0.20043154
248	0xbe175f47	-0.14782439
249	0x3c9d70f6	0.019218903
250	0xbe372fde	-0.17889354
251	0xbe7e7478	-0.24849117
252	0x3d64a97b	0.05582569
253	0xbdce76db	-0.10081264
254	0xbe234a59	-0.1594633
255	0xbe367180	-0.17816734

network.6.bias f4 [64]
0	0x3d8dd071	0.06924523
1	0xbcec2a15	-0.02882866
2	0x3e46c664	0.19411618
3	0x3dcb15fd	0.09916303
4	0x3ddb9920	0.10722566
5	0x3e4180cd	0.1889679
6	0x3bc13cb7	0.0058971304
7	0x3e557eb3	0.20849113
8	0x3e0c66e5	0.13711126
9	0xbe92f0d9	-0.28699377
10	0xbd5bfcbf	-0.053707834
11	0x3de0927b	0.10965439
12	0x3e57d21b	0.21076243
13	0x3e1f5729	0.15560593
14	0x3d664a43	0.056223165
15	0xbc52f138	-0.012874894
16	0x3e3c37a1	0.18380596
17	0x3e17cd46	0.148244
18	0xbe5d4bd7	-0.21610962
19	0x3e0c29f1	0.13687874
20	0x3d2821bd	0.0410478
21	0x3d5d4b6f	0.054027017
22	0x3e637905	0.22214134
23	0x3e87e78a	0.26543838
24	0x3daca823	0.08430507
25	0x3de99371	0.11405075
26	0xbc38638d	-0.0112542035
27	0x3e02707d	0.12738223
28	0xbd77e787	-0.060523536
29	0x3ddd11be	0.107944
30	0x3e0b015b	0.13574736
31	0x3e0d46a2	0.13796476
32	0x3dd70d6d	0.10500608
33	0x3e93ca01	0.28865054
34	0x3d296731	0.041358177
35	0xbddef5bc	-0.10886714
36	0xbbd18156	-0.006393592
37	0xbeb7f12b	-0.35926184
38	0x3ddaa4ea	0.10675986
39	0x3d031e86	0.03201153
40	0xbe192ba4	-0.14958054
41	0x3e05339c	0.13007969
42	0x3c6da7a3	0.0145053
43	0x3d8298cb	0.06376799
44	0x3dce977c	0.10087487
45	0x3cd93821	0.026516022
46	0xbd62e096	-0.055389963
47	0x3dca6207	0.098819785
48	0x3c4795df	0.012181728
49	0xbbf23ead	-0.0073927254
50	0xbe335dc4	-0.17516237
51	0xbc61005a	-0.013732994
52	0xba8d9a9c	-0.0010803523
53	0x3d3e113c	0.046403155
54	0x3df4b984	0.11949447
55	0x3c8bddde	0.017073568
56	0x3dc96d27	0.09835272
57	0x3ce76424	0.028245993
58	0x3e42cc6f	0.19023298
59	0x3def78b2	0.11692943
60	0x3e22b982	0.15891078
61	0x3d2a5764	0.04158725
62	0x3dec391a	0.11534329
63	0x3e352d5f	0.17693089

network.9.weight f4 [64, 64]
0	0x3eb2683b	0.34845147
1	0xbd4a25ff	-0.049352642
2	0xbd0c0cf0	-0.034192026
3	0xbe26af6f	-0.1627786
4	0xbc77b30f	-0.0151183745
5	0x3cc9d06f	0.024635522
6	0x3c9da28e	0.019242551
7	0x3cdf322b	0.027245602
8	0x3ce68740	0.028140664
9	0xbea112f1	-0.31459764
10	0xbe1706f8	-0.14748752
11	0xbd45e168	-0.048310667
12	0x3b256e68	0.002524281
13	0xbe223948	-0.15842164
14	0xbdc942cd	-0.09827194
15	0x3dae9d3d	0.085260846
16	0xbe55731c	-0.20844692
17	0x3bc397da	0.00596903
18	0xbdcc85d2	-0.09986462
19	0x3d5e5228	0.05427757
20	0x3e0ed807	0.13949595
21	0xbe61c287	-0.22046863
22	0x3dac8df8	0.08425516
23	0xbdfc13c8	-0.123084605
24	0x3e5f8f92	0.21832111
25	0xbd98483f	-0.07435655
26	0xbe4d4b4a	-0.20048252
27	0xbd919a51	-0.07109512
28	0xbe083286	-0.13300523
29	0xbe1b3525	-0.15156992
30	0xbd3c6791	-0.045997206
31	0xbd03331e	-0.03203117
32	0x3dfaa9a2	0.12239386
33	0x3db6c01b	0.0892336
34	0xbe0e2120	-0.13879824
35	0xbd9a3a3e	-0.0753064
36	0x3e071a9b	0.13193743
37	0xbd979d91	-0.074031
38	0x3d78be2c	0.060728237
39	0xbb4bd7fa	-0.0031104074
40	0xbc17d840	-0.009267867
41	0xbd86a108	-0.06573683
42	0xbe5bc25c	-0.21460861
43	0xbe343e48	-0.17601883
44	0x3e199e2a	0.15001741
45	0x3dd86810	0.10566723
46	0x3e94e62b	0.29081854
47	0xbe05c51b	-0.13063471
48	0x3d930e31	0.07180441
49	0x3db1275f	0.086500876
50	0x3d983004	0.07431033
51	0xbe8a7310	-0.2704091
52	0xbd682b3f	-0.056681868
53	0x3e20cb37	0.1570252
54	0xbdea7617	-0.11448305
55	0xbe414a31	-0.18875958
56	0x3e1204a6	0.14259586
57	0x3dcc6b36	0.09981386
58	0xbdc29848	-0.095017016
59	0xbd301976	-0.04299303
60	0xbe0634b4	-0.13106042
61	0x3d6d6dc5	0.057966013
62	0x3e3ab78b	0.18234079
63	0x3e5a9f53	0.2134984
64	0x3e9b9ecf	0.303946
65	0x3e18e979	0.14932813
66	0x3e3fb316	0.1872066
67	0xbe0a3822	-0.13497975
68	0x3dbf1586	0.09330277
69	0x3d523c51	0.051327053
70	0x3e834c43	0.2564412
71	0x3e89e87b	0.2693518
72	0x3da88965	0.08229331
73	0xbd668b0f	-0.05628496
74	0xbda33cc3	-0.07970574
75	0xbd92047c	-0.071297616
76	0xbe9919f7	-0.29902622
77	0xbddc842c	-0.10767397
78	0xbe27b139	-0.16376199
79	0xbe361b8e	-0.17783949
80	0x3d6d5e4f	0.057951268
81	0x3cb67d2a	0.02227648
82	0x3daab908	0.08336073
83	0x3e4a4031	0.1975105
84	0x3e257a96	0.16160044
85	0xbeac5040	-0.33654976
86	0x3dea406c	0.11438069
87	0x3e07ae00	0.1324997
88	0x3e75897f	0.23978232
89	0x3e6301f8	0.2216872
90	0xbdbc0d92	-0.09182276
91	0x3e233151	0.15936781
92	0x3d8f1b4d	0.06987629
93	0xbe52a494	-0.20570594
94	0x3c42b742	0.011884512
95	0xbdca707b	-0.09884735
96	0xbe01dd1e	-0.12682006
97	0xbd84007a	-0.064454034
98	0xbd27449d	-0.04083692
99	0x3e2e79bf	0.1703863
100	0x3d769e16	0.060209356
101	0xbe05ff99	-0.13085784
102	0x3e2b307c	0.16717714
103	0xbe0ef35e	-0.13960025
104	0x3d2979e9	0.04137603
105	0xbec199c2	-0.3781262
106	0xbe482055	-0.19543584
107	0xbe6f1acc	-0.23350066
108	0x3eb9594d	0.36200944
109	0x3e15df8b	0.14636056
110	0x3dab5a3d	0.08366821
111	0xbe737420	-0.23774767
112	0xbca27fe7	-0.01983638
113	0xbeda5f36	-0.42650765
114	0xbd77e3b8	-0.060519904
115	0xbe80165e	-0.25017065
116	0x3e154fbb	0.14581196
117	0xbe4bf9d9	-0.19919528
118	0xbecc3c4c	-0.39889753
119	0x3d8cb0e3	0.06869676
120	0x3e581e6d	0.21105357
121	0xbd092294	-0.033480242
122	0x3e87432d	0.2641844
123	0xbe820d80	-0.25400925
124	0xbe9da2bf	-0.30788228
125	0x3e663888	0.22482502
126	0xbe6dc44c	-0.23219413
127	0x3e7801c1	0.24219419
128	0x3e8fd058	0.2808864
129	0xbcc9628b	-0.024583122
130	0x3dea51dd	0.114413954
131	0xbe6b31d9	-0.22968234
132	0xbd98dfd6	-0.07464568
133	0x3e6ccff1	0.23126198
134	0xbe21208b	-0.1573507
135	0x3e1db3e7	0.15400659
136	0x3e4622f1	0.19349267
137	0x3d69dfdb	0.05709825
138	0xbdf75e0e	-0.120784864
139	0xbdc9f3cb	-0.09860953
140	0xbdee02e1	-0.11621643
141	0xbc1d36ac	-0.009595554
142	0xbe1dbba8	-0.15403616
143	0xbd392889	-0.045204673
144	0xbdbc1f24	-0.09185627
145	0x3e4fa101	0.20276262
146	0x3d7684af	0.06018513
147	0x3e92d624	0.28679
148	0x3e1d0bb9	0.15336503
149	0xbe39cf95	-0.18145593
150	0x3e7694fa	0.24080268
151	0xbba4d33c	-0.005030064
152	0x3d49a183	0.049226295
153	0x3e879500	0.26480865
154	0xbda4675b	-0.08027526
155	0xbdfc7c75	-0.12328426
156	0x3d9eebc4	0.077598125
157	0xbd430be0	-0.047618747
158	0xbe3de73f	-0.18545245
159	0x3d8beb7e	0.06832026
160	0xbd486d94	-0.048932627
161	0x3e3a8590	0.18215013
162	0xbe745e0a	-0.23863998
163	0x3dfcaa99	0.123372264
164	0xbe32e615	-0.17470582
165	0x3e31c28a	0.17359367
166	0x3db44829	0.08802826
167	0xbc2cc487	-0.010544903
168	0xbdaf329c	-0.08554575
169	0xbe8eecd9	-0.27915075
170	0xbe20c7b3	-0.15701179
171	0xbe34831e	-0.17628142
172	0x3e221167	0.15826951
173	0x3d6ce602	0.05783654
174	0x3ddcd2fd	0.1078243
175	0xbe468f81	-0.1939068
176	0xbc2b77f6	-0.010465613
177	0xbcbac168	-0.022797301
178	0xbb7da058	-0.0038700309
179	0xbe422f9d	-0.18963476
180	0x3e3941cf	0.1809151
181	0xbbf94c72	-0.00760799
182	0xbe946788	-0.28985238
183	0xbdc36c9e	-0.095422015
184	0x3e04a7cc	0.12954634
185	0x3d898af0	0.06715953
186	0x3ded4591	0.11585534
187	0xbe14d79d	-0.14535375
188	0xbe76b36b	-0.2409188
189	0x3e4107a9	0.18850578
190	0xbd229d4a	-0.039700784
191	0x3ec3a05f	0.3820829
192	0x3e524478	0.20533931
193	0xbdfddf1b	-0.123960696
194	0x3dcce9d5	0.100055374
195	0x3dcfff31	0.10156096
196	0xbd10a855	-0.035316784
197	0x3dfe7d5b	0.124262534
198	0x3d2ee8e7	0.04270258
199	0x3e0c11cb	0.13678662
200	0x3dd84c11	0.105613835
201	0x3d129035	0.035782058
202	0xbba6a1d9	-0.0050852117
203	0xbe6bb8c1	-0.23019697
204	0xbe13b6c0	-0.14425182
205	0xbe3e7f09	-0.18603148
206	0x3d009130	0.03138846
207	0xbe2b949d	-0.1675591
208	0xbc0e1d11	-0.008673922
209	0x3e21fa70	0.1581819
210	0xbd1561a2	-0.036470063
211	0x3ec766a8	0.38945508
212	0x3e2b106e	0.16705486
213	0x3d945b9e	0.07244037
214	0x3e069cc9	0.13145746
215	0x3ddfbd28	0.109247506
216	0x3e62c5e2	0.22145799
217	0x3e1ba672	0.15200213
218	0xbd506454	-0.05087693
219	0x3e3bf087	0.18353473
220	0x3e05495a	0.13016263
221	0xbe21cd71	-0.15801026
222	0xbc900375	-0.017579773
223	0xbbb3592f	-0.005473278
224	0xbf09b9dd	-0.5379923
225	0x3dfe3ab0	0.124135375
226	0xbe4a709f	-0.19769524
227	0xbdc547c0	-0.09632826
228	0x3d325b68	0.043544203
229	0xbddd5f77	-0.10809224
230	0x3eaed15e	0.3414411
231	0xbdf4440d	-0.11927042
232	0xbe45c6dc	-0.1931414
233	0xbd34660c	-0.044042632
234	0xbe462d15	-0.19353135
235	0xbe3b34d4	-0.18281871
236	0x3e9f189a	0.31073457
237	0x3e1027e0	0.14077711
238	0x3e2080a2	0.1567407
239	0x3b10b9c3	0.002208338
240	0x3e4f4b94	0.20243675
241	0xbec8c671	-0.392139
242	0xbd8771a3	-0.06613471
243	0xbc344164	-0.011001918
244	0x3d2e9be9	0.042629156
245	0xbe8db8ac	-0.27679956
246	0xbe047bf6	-0.12937912
247	0x3c6996e2	0.014257165
248	0x3e0f0284	0.13965803
249	0x3e9e0740	0.30864906
250	0x3cada243	0.021195536
251	0xbd5045c1	-0.050847773
252	0xbe8d9047	-0.27649137
253	0x3d3f6d95	0.046735365
254	0x3d058f16	0.03260716
255	0x3e560f92	0.20904377

network.9.bias f4 [64]
0	0xbd8b77e0	-0.06809974
1	0x3d77555d	0.060384143
2	0x3cc72489	0.024309414
3	0x3e9f0514	0.31058562
4	0x3c6396a6	0.013890898
5	0x3dd62d25	0.104578294
6	0x3dacde21	0.08440805
7	0x3da87b69	0.082266636
8	0x3e3b39f0	0.1828382
9	0x3e85598a	0.26044875
10	0x3e1246ab	0.1428477
11	0x3e9112e5	0.28334728
12	0x3e3389ca	0.17533031
13	0x3e1a5f57	0.15075432
14	0x3e5755b6	0.2102879
15	0xbe03d0dd	-0.12872644
16	0x3de5ca0b	0.11220177
17	0x3e5438ab	0.20724742
18	0x3e88acb3	0.2669426
19	0x3e7c81b1	0.24658848
20	0x3d65723a	0.056017138
21	0x3e3fa723	0.18716101
22	0xbd69c8d2	-0.057076283
23	0x3e5b1139	0.21393289
24	0x3bb09dd2	0.0053899074
25	0x3df5b2e3	0.119970106
26	0xbe1dea44	-0.15421396
27	0x3e541d33	0.20714264
28	0x3d25a100	0.040436745
29	0x3d2639cd	0.040582467
30	0xbd267238	-0.04063627
31	0xbd82bc59	-0.06383581
32	0xbe24baa0	-0.16086817
33	0x3e30254f	0.17201732
34	0xbe668e93	-0.22515325
35	0x3d35d9f8	0.044397324
36	0x3ca6a6d9	0.020343231
37	0x3eb258fa	0.3483351
38	0x3dc90025	0.09814481
39	0xbcb3f885	-0.02196909
40	0x3e89e574	0.2693287
41	0x3e02cae8	0.12772715
42	0x3e74925d	0.23883958
43	0x3dd2b2a8	0.10287982
44	0xbbe6d892	-0.00704486
45	0xbdb12e27	-0.08651381
46	0x3d92a467	0.071602635
47	0x3e868edb	0.26280865
48	0x3ccc9c9b	0.024977019
49	0x3e4cbafb	0.19993202
50	0x3dafbed2	0.08581318
51	0xbcb4fbce	-0.022092726
52	0x3df82222	0.12115885
53	0x3e015dd3	0.12633447
54	0xbdf344e0	-0.11878371
55	0xbd1c8bbd	-0.038219202
56	0xbd692869	-0.056923304
57	0x3e952082	0.29126364
58	0xbb14d58e	-0.0022710296
59	0x3c6268ef	0.013818963
60	0x3e0eaf65	0.13934095
61	0xbb555951	-0.0032554457
62	0x3e847548	0.25870728
63	0x3de8e33d	0.11371467

network.12.weight f4 [64, 64]
0	0x3dc7615d	0.097353674
1	0xbe7c98ef	-0.24667715
2	0xbc422a83	-0.011850956
3	0x3c466cec	0.01211093
4	0x3d396784	0.045264736
5	0x3cb094d7	0.021555347
6	0x3e0cfba1	0.13767864
7	0xbe2031fc	-0.15644068
8	0x3c04fc5d	0.008116809
9	0x3d8e7d10	0.069574475
10	0x3d225b3d	0.039637793
11	0xbe68d790	-0.2273848
12	0xbdaba870	-0.08381736
13	0xbdc589bb	-0.096454106
14	0x3d1832d2	0.03715784
15	0xbc83b452	-0.016077194
16	0xbe411e39	-0.18859185
17	0xbce05b6a	-0.02738734
18	0xbe0fd4e0	-0.14046049
19	0xbab26b8a	-0.0013612371
20	0xbd0e8eaa	-0.034804024
21	0xbdaee7c6	-0.08540301
22	0xbe332ff2	-0.17498758
23	0xbcbe8e53	-0.023261225
24	0x3c88ecf0	0.016714543
25	0x3ce45cb4	0.027876236
26	0xbe2274ba	-0.1586484
27	0xbdce432d	-0.100714065
28	0x3e0c0afd	0.13676067
29	0xbb974385	-0.0046162033
30	0x3b8911ae	0.004183016
31	0x3d7005de	0.058599345
32	0xbd9ffb35	-0.07811586
33	0xbde9b178	-0.114108026
34	0x3d88024d	0.06641064
35	0xbd2f950b	-0.042866748
36	0xbe5de89a	-0.21670762
37	0x3b8d1544	0.0043055136
38	0xbbe4168e	-0.0069606965
39	0xbd807910	-0.06273091
40	0xbe1d8d4b	-0.1538593
41	0x3c8f623e	0.0175029
42	0x3c6f28a1	0.014597089
43	0xbe528e93	-0.205622
44	0xbc80a5b8	-0.01570402
45	0x3d86d00a	0.06582649
46	0xbe1a0d93	-0.1504424
47	0xbccf4134	-0.025299646
48	0xbd35e406	-0.044406913
49	0xbd36acfe	-0.044598572
50	0x3d8bc762	0.06825139
51	0xbd8579cc	-0.065173715
52	0x3d421d8b	0.047391456
53	0xbd87bd58	-0.06627911
54	0x3dea1764	0.11430243
55	0x3d6d8d9f	0.05799639
56	0xbd61331f	-0.054980393
57	0xbd526e91	-0.051374976
58	0x3df1a0aa	0.11798222
59	0xbc8215cc	-0.015879534
60	0x3d0826b2	0.033240028
61	0xbdd66eda	-0.10470362
62	0xbdbb50d4	-0.09146276
63	0xbe50bf63	-0.20385508
64	0xbd907812	-0.070541516
65	0x3e3e2636	0.18569264
66	0x3e1040d1	0.14087225
67	0x3e033417	0.1281284
68	0xbe8c0671	-0.27348664
69	0xbd2d289b	-0.042275053
70	0x3e5ac3d2	0.21363762
71	0x3d29e9f6	0.04148289
72	0xbdc7f966	-0.09764366
73	0xbe86a4d1	-0.2629762
74	0xbd80c3e8	-0.06287366
75	0x3d2ef480	0.042713642
76	0xbe370a71	-0.17875077
77	0xbe25e682	-0.16201213
78	0xbd009ba6	-0.031398438
79	0xbd12ed05	-0.03587057
80	0xbd79f604	-0.061025634
81	0xbdbe159e	-0.09281467
82	0xbb9542b9	-0.004555073
83	0xbe785a5e	-0.24253222
84	0xbcd3817f	-0.025818584
85	0xbe22d9c5	-0.15903385
86	0xbd126cb0	-0.035748184
87	0x3c6971ea	0.014248351
88	0xbd53222c	-0.05154626
89	0x3e273c0a	0.16331497
90	0xbd98623b	-0.07440611
91	0xbc47086b	-0.012148003
92	0xbdf6b9f6	-0.12047188
93	0xbe19e507	-0.15028773
94	0xbdbc31bb	-0.09189173
95	0xbbefa99f	-0.0073139216
96	0x3d22e9c7	0.03977373
97	0xbd89588c	-0.06706342
98	0x3d859b10	0.065237164
99	0x3e1b2232	0.15149763
100	0x3de97ac4	0.11400369
101	0xbebe52cb	-0.3717254
102	0xbd34b4af	-0.044117626
103	0x3e18e493	0.14930944
104	0xbec316a9	-0.38103226
105	0x3e3798de	0.17929408
106	0xbe0d9817	-0.13827549
107	0xbdb13f94	-0.08654705
108	0xbccf00af	-0.02526888
109	0x3bd7709b	0.006574703
110	0x3de26e8a	0.1105624
111	0x3c0fc898	0.008775853
112	0x3e60bcfa	0.21947089
113	0xbe1a4f2f	-0.15069269
114	0x3dae75b5	0.085185446
115	0x3c6be416	0.014397642
116	0x3d38c51e	0.04510986
117	0x39584dc3	0.00020628334
118	0x3df348be	0.11879109
119	0xbe1587c9	-0.14602579
120	0xbe0e4f0d	-0.13897343
121	0xbec1c05c	-0.3784207
122	0xbb300f42	-0.0026864563
123	0x3dc35b1c	0.09538862
124	0xbe8e0ace	-0.27742618
125	0x3e3cce91	0.18438174
126	0xbe73c68c	-0.23806208
127	0xbd6d97cf	-0.058006104
128	0xbd8c9e3d	-0.06866119
129	0xbd961f83	-0.07330229
130	0x3e1ea0fa	0.15491095
131	0xbeaf5ccf	-0.34250495
132	0x3da54236	0.08069269
133	0xbd474c55	-0.04865678
134	0x3ddea569	0.10871393
135	0x3d832b30	0.06404722
136	0x3dd0dbe9	0.101981945
137	0xbd166b2e	-0.03672331
138	0x3e2c6bc7	0.16837989
139	0xbe67c520	-0.22633791
140	0x3d70defa	0.058806397
141	0x3e039b46	0.12852201
142	0xbe30a758	-0.17251337
143	0xbdca926a	-0.098912075
144	0xbd12aa08	-0.035806686
145	0x3dc0ffa1	0.09423757
146	0x3e21d850	0.15805173
147	0x3d9b51ca	0.075839594
148	0xbe08caa8	-0.13358557
149	0x3d17d531	0.03706855
150	0x3d07257f	0.032994743
151	0x3ccd6636	0.025073152
152	0x3d831893	0.064011715
153	0xbd96d626	-0.07365064
154	0x3dd3e73f	0.10346841
155	0xbea2c6a1	-0.31792167
156	0xbe96962c	-0.29411447
157	0x3d2548ab	0.040352505
158	0xbca88d94	-0.020575322
159	0x3e21760e	0.1576769
160	0xbdffcf49	-0.124907084
161	0x3c332367	0.010933734
162	0xbe2634f6	-0.1623114
163	0xbd9c1117	-0.07620447
164	0x3b546bfb	0.0032412994
165	0x3db5b21b	0.088718615
166	0xbe0d0a28	-0.13773406
167	0x3d96cffc	0.073638886
168	0x3e3d90b6	0.18512234
169	0xbd8ff2a0	-0.07028699
170	0xbdd4e6ca	-0.10395582
171	0xbe0686a9	-0.13137306
172	0x3cc095dd	0.02350896
173	0xbe1b36bc	-0.15157598
174	0xbe061a17	-0.1309589
175	0x3d73e21e	0.059541814
176	0xbe0b6fe5	-0.13616903
177	0x3da2c54d	0.079477884
178	0x3c6c8989	0.014437088
179	0x3d1e5eeb	0.03866474
180	0xbe3b68f2	-0.18301752
181	0xbd277c08	-0.04088977
182	0xbd4ac48c	-0.049503848
183	0x3d804e43	0.06264927
184	0xbe4800d4	-0.19531566
185	0x3d9d3b62	0.07677342
186	0x3d91628e	0.07098876
187	0xbd750f92	-0.059829302
188	0x3d5a8124	0.053345814
189	0xbd6bce3b	-0.057569724
190	0x3db830e1	0.08993698
191	0xbd52f15f	-0.05149972
192	0xbe04e7c3	-0.12979035
193	0xbd778d52	-0.060437508
194	0xbd994023	-0.07482936
195	0xbed34acb	-0.41268
196	0xba9f7784	-0.0012166356
197	0xbdea3d4f	-0.11437475
198	0x3e19d970	0.15024352
199	0xbcfe1af4	-0.031018712
200	0xbc675d5b	-0.014121379
201	0x3e59c796	0.21267542
202	0x3d059096	0.03260859
203	0xbe9f1e83	-0.31077966
204	0x3d704736	0.058661662
205	0x3e252a65	0.16129453
206	0xbeb69f93	-0.3566862
207	0x3dca0058	0.09863347
208	0xbe0a460f	-0.13503288
209	0x3d7c2f87	0.061568763
210	0x3e187b44	0.14890772
211	0x3d7080ab	0.058716457
212	0x3d6d9e77	0.058012452
213	0x3de270c9	0.11056668
214	0x3d192daa	0.037397064
215	0x3e02f58e	0.12788984
216	0xbdaab001	-0.08334351
217	0xbe2f6119	-0.17126884
218	0x3d831009	0.06399543
219	0xbe597b91	-0.21238543
220	0xbd6314a0	-0.05543959
221	0x3b9b1169	0.0047323
222	0x3d01397f	0.031548973
223	0xbd75a995	-0.05997618
224	0xbdbe33ae	-0.09287201
225	0x3cd81e10	0.026381522
226	0xbe1b5d89	-0.151724
227	0xbd3e5fa8	-0.046477944
228	0x3d95459d	0.07288668
229	0x3e01b6eb	0.12667434
230	0xbe032f34	-0.12810975
231	0x3d235cd6	0.039883457
232	0x3dc29511	0.095010884
233	0xbdc57fab	-0.09643491
234	0xbd49482d	-0.049141098
235	0xbdf9bac8	-0.12193829
236	0xbe24bd8c	-0.16087931
237	0x3d45c7da	0.048286296
238	0xbda5f936	-0.08104174
239	0x3def1a17	0.11674898
240	0xbe84af4f	-0.25915
241	0x3de52c36	0.11190073
242	0x3cfc2556	0.030779522
243	0xbe3da924	-0.18521553
244	0xbe3d52ad	-0.1848857
245	0x3d8a0193	0.067385815
246	0xbce53f11	-0.027984174
247	0xbd9a1767	-0.07523995
248	0xbe87d1db	-0.26527295
249	0x3e4ee81f	0.20205735
250	0x3d9338db	0.07188579
251	0xbd8efbdc	-0.06981632
252	0x3e01d556	0.12679037
253	0xbd92efff	-0.07174682
254	0x3e4110c5	0.18854053
255	0xbe2690a2	-0.1626611

network.12.bias f4 [64]
0	0xbe514da0	-0.20439768
1	0x3e28bead	0.16478987
2	0x3eb3ee88	0.35142922
3	0x3e972f20	0.2952814
4	0x3eb652a6	0.3560993
5	0x3dcc213f	0.09967279
6	0x3e9af4ee	0.30264992
7	0x3e71ecdb	0.2362551
8	0x3d0ffb9b	0.03515206
9	0x3dbebd70	0.09313476
10	0x3eb52965	0.35383144
11	0x3eae10f5	0.33997312
12	0x3e3307bd	0.1748342
13	0x3dc59cda	0.09649058
14	0x3d087911	0.033318583
15	0x3e7449f2	0.23856333
16	0x3e6637c8	0.22482216
17	0xbe433d89	-0.19066443
18	0x3e38a599	0.1803192
19	0x3ed7edcf	0.4217362
20	0x3e944f1e	0.28966612
21	0x3e451e99	0.19249953
22	0x3e5d5057	0.21612678
23	0x3eae3950	0.340281
24	0x3d458f3e	0.04823231
25	0x3f053c97	0.5204558
26	0x3eac4213	0.3364416
27	0x3e045332	0.12922361
28	0x3ebba0b4	0.36646044
29	0x3e916cff	0.2840347
30	0xbd193c29	-0.03741089
31	0x3e4b97c3	0.19882111
32	0x3e56c69a	0.20974198
33	0x3e441802	0.19149783
34	0x3e9d6b68	0.30746007
35	0x3f031dc9	0.51217324
36	0x3eccbbe4	0.399871
37	0x3e38792e	0.18014976
38	0xbe2470d8	-0.16058671
39	0x3e5953e3	0.21223406
40	0x3e1e179e	0.15438697
41	0x3e9863f7	0.29763767
42	0x3daec4f1	0.08533657
43	0x3eb5ca9f	0.3550615
44	0x3e790922	0.2431989
45	0x3efcde14	0.49388182
46	0x3e77a71c	0.24184841
47	0x3dc960dc	0.098329276
48	0x3eb4ca4f	0.353106
49	0x3d242200	0.040071487
50	0x3dd4186e	0.10356222
51	0xbda8526e	-0.08218847
52	0xbc20c991	-0.009813682
53	0x3ed83c1e	0.42233366
54	0x3ec62788	0.38702035
55	0x3ddb070d	0.10694704
56	0x3e8a724e	0.27040333
57	0x3e63b033	0.22235183
58	0x3ea63a70	0.3246646
59	0xbdc34251	-0.09534133
60	0x3ec1b3af	0.378324
61	0x3eecfd2d	0.46286908
62	0x3ed2986f	0.41131923
63	0x3d4f3806	0.050590537

network.15.weight f4 [1, 64]
0	0xb8434e7d	-4.656472e-05
1	0x3d571c04	0.052516952
2	0xbde92c12	-0.11385359
3	0xbdc6e826	-0.097122476
4	0xbdb6618a	-0.08905323
5	0x3d0a6477	0.033787217
6	0xbd3b9105	-0.0457926
7	0xbe194b10	-0.1497004
8	0x3a1e8d73	0.0006048299
9	0x3c7ee812	0.01555826
10	0xbdc3173f	-0.09525918
11	0xbcf8f19d	-0.030388648
12	0x3cd7bf26	0.026336264
13	0xbc8f3b8d	-0.01748445
14	0xbd103c77	-0.035213914
15	0xbd3268a4	-0.043556824
16	0x3d93fb35	0.07225648
17	0xbd9c5a3f	-0.076344006
18	0x3d9c0215	0.076175846
19	0xbdf1aafd	-0.118001916
20	0xbd3e0b96	-0.046397768
21	0x3d9697df	0.07353186
22	0x3d6b2705	0.05741026
23	0xbdddffdf	-0.10839819
24	0x3d6d8dfe	0.057996742
25	0xbe0b6004	-0.13610846
26	0xbd934d63	-0.07192495
27	0x3d61df03	0.05514432
28	0xbe029407	-0.1275178
29	0xbd9a03bf	-0.07520246
30	0xbc64aa94	-0.013956685
31	0xbc0518be	-0.008123575
32	0x3d8c194d	0.06840763
33	0x3da02b87	0.07820802
34	0xbdadff4e	-0.08495961
35	0xbd99c050	-0.07507384
36	0xbdc3e26f	-0.09564673
37	0xbd0d9716	-0.034567915
38	0xbc2177a5	-0.009855186
39	0xbd5aabbf	-0.053386446
40	0x3d82f295	0.06393925
41	0xbd9053cb	-0.07047232
42	0x3dd5191d	0.104051806
43	0xbdca3ade	-0.09874509
44	0xbdf01949	-0.11723573
45	0xbdb0d3bf	-0.08634137
46	0xbd7934f4	-0.060841516
47	0xbc5165ef	-0.0127806505
48	0xbda032cf	-0.07822191
49	0x3d047581	0.032338623
50	0x3d8c89be	0.0686221
51	0x3cc92197	0.02455215
52	0x3d271eff	0.040801045
53	0xbdd333be	-0.103126034
54	0xbd8e843c	-0.069588155
55	0x3d9493f5	0.07254783
56	0x3d1d2d0e	0.038373046
57	0x3db94ef8	0.09048265
58	0xbcbf493b	-0.023350349
59	0xba8d2dfe	-0.0010771153
60	0xbddbf326	-0.10739736
61	0xbd81a3dc	-0.06330082
62	0xbe49c7a6	-0.19705066
63	0xbc521872	-0.012823211
