models/AnomalyDetector_20250528_162541.pth (torch, 12997 bytes, 9 tensors)

network.0.weight f4 [15, 41]
000000 27 0c c0 bc 7c e6 84 bd 55 cb b8 3b 8d 42 0f 3e
       -0.023443295 -0.06489274 0.0056394734 0.13990231
000010 8d 82 df bc 8a bf 18 be 0d 89 ea bc 92 71 1f bd
       -0.027283931 -0.14916816 -0.028629804 -0.03892667
000020 77 cf dd 3d 49 1c dc bf 30 cb 08 bd 45 0b d5 3d
       0.108305864 -1.7196132 -0.0333969 0.1040254
000030 6a 68 a4 be 34 77 42 be 02 39 40 be d1 c7 15 3f
       -0.32110912 -0.18990785 -0.18771747 0.5850802
000040 d4 f6 0e 3d 98 bd b6 bd 85 8a 8c 3e 38 d1 63 3c
       0.034903362 -0.08922881 0.27449432 0.013904862
000050 d1 92 ad bd fb ac 26 be 48 34 82 be bf 53 dc be
       -0.08475269 -0.16276924 -0.25430512 -0.43032643
000060 64 c8 35 bd 09 5d 1c bd 00 d9 6d 3d 96 c0 93 bc
       -0.04438056 -0.038174663 0.058068275 -0.018036168
000070 87 41 a5 bc b8 9f 4b 3c 1e b3 92 3d 75 ce 1c bd
       -0.020172847 0.012428217 0.0716307 -0.03828283
000080 34 fa 62 3e b8 00 46 be 30 fb 11 be 43 b6 5b be
       0.22165757 -0.19336212 -0.14255977 -0.21456246
000090 b3 c4 62 be 0e 78 d4 bc 3f 97 d6 3d 45 ee a5 3c
       -0.22145347 -0.025936153 0.10478067 0.020255217
0000a0 96 62 2e be 65 d9 17 bd 2c f7 06 3f 2c 55 2b bf
       -0.17029795 -0.037072558 0.52720904 -0.66926837
0000b0 03 e1 67 be f2 01 6f 3c 51 69 a1 be ed 22 f6 bc
       -0.22644429 0.014587866 -0.31525663 -0.03004595
0000c0 02 bc e4 3d 70 47 ce 3c 33 a7 b4 bd 67 35 8d 3d
       0.11168672 0.025180548 -0.08820953 0.06894951
0000d0 e1 a1 73 be 4b d1 37 3d 9b ae 5f 3d 78 1e 77 3e
       -0.2379222 0.04487733 0.054609876 0.24132717
0000e0 37 8c c5 3e ab c3 04 3d e3 54 c9 bb 95 99 ea bd
       0.38583538 0.032413166 -0.0061441525 -0.11455075
0000f0 ef 8c 5c 3d ed 5e 64 3e 74 6a 24 3e 33 79 a0 3d
       0.053845342 0.22301836 0.16056234 0.07835617
000100 57 8a 70 3e 75 9a 2c bb e0 6c bf bc 11 26 aa bd
       0.23490272 -0.002633718 -0.023367345 -0.08308042
000110 9b a6 a2 bd 32 94 dd bd f5 47 16 3b 29 d0 fb 3c
       -0.07941934 -0.10819282 0.0022931073 0.030738907
000120 4f 0e 0e bf ab 18 e2 3e ea dd 05 3e 67 e8 1f 3e
       -0.55490583 0.44159445 0.13072935 0.15615998
000130 4d 29 d2 bd 4e 33 fd ba c0 24 2e bd ce 10 f5 3c
       -0.10261784 -0.0019317658 -0.042515516 0.02991524
000140 7c 92 1c be 63 64 6c 3e a4 75 08 bf b1 fa bd 3e
       -0.15290254 0.2308517 -0.53304505 0.37105325
000150 cb ac 39 3e ff 7f 45 bc 4e 9d ba 3d 0c 03 35 3e
       0.18132322 -0.012054442 0.09112035 0.17676944
000160 46 63 84 bc 26 33 16 3f aa 3f be bc 05 9b 87 bd
       -0.016160619 0.58671796 -0.023223717 -0.066213645
000170 2a de bd 3d 14 1e c6 be 50 f2 27 be b4 22 c1 3d
       0.0927089 -0.38694823 -0.16401029 0.09430447
000180 a1 5e c9 bd d9 23 bc 3c 90 95 13 3d 03 c2 0e 3d
       -0.09832502 0.022966312 0.036031306 0.034852993
000190 e5 fc 31 3e 95 f8 7d 3d 1a 56 be 3e 3f 7a 27 3e
       0.17381628 0.062004644 0.37175065 0.16355227
0001a0 6c fb 04 3d 8b 64 61 bd 81 8b 05 be b1 be 7f 3e
       0.032466337 -0.055027526 -0.13041498 0.24975087
0001b0 75 25 84 bd d3 58 15 be e4 86 7b be 55 d7 38 be
       -0.06452457 -0.14584665 -0.24563175 -0.18050893
0001c0 94 a4 7d bd 97 fa ec 3b 89 fa 85 bd f7 11 f5 bc
       -0.061924532 0.007232021 -0.065419264 -0.029915793
0001d0 02 34 2f be f8 09 25 3d b0 ac 04 be 71 d8 1f 3f
       -0.17109683 0.04029271 -0.129565 0.6243964
0001e0 b9 49 2e 3e 6b e1 ce 3e d5 22 24 be 3c 9b 36 3e
       0.1702031 0.40406355 -0.16028912 0.17832655
0001f0 53 aa 68 3d 90 0f 00 3e d9 51 81 3d 76 50 be bc
       0.05680306 0.12505937 0.06314439 -0.023231726
000200 b4 30 39 3e b2 a8 51 bc b1 94 a2 bc 0e b2 d1 3d
       0.18084985 -0.012796568 -0.019846292 0.10239039
000210 50 d5 44 bf e5 74 c8 3d a0 2b 89 3e 8e f5 1c bf
       -0.7688799 0.09787921 0.26791096 -0.61312187
000220 0b 0d 23 be 6a e3 e9 3e fc df 5e 3e 65 9e 28 3c
       -0.15922944 0.45681316 0.21765131 0.01029167
000230 38 57 8f 3d 28 bc 56 3e 9f 0c 8e 3d 61 a8 3b 3e
       0.069990575 0.20970213 0.06936001 0.1832595
000240 2e 88 91 bd 1a da d0 3d 30 ff fb 3d c6 86 db bd
       -0.07106052 0.101978496 0.123045325 -0.10719065
000250 fb 5a 35 be 38 9c bd be bb b7 cc be 17 79 7e bd
       -0.17710488 -0.37033248 -0.39983925 -0.0621272
000260 9a b5 79 3b fb c7 fd 3d 2b a7 48 3e 17 aa c4 3d
       0.0038102628 0.12391659 0.1959502 0.096027546
000270 55 fe 88 bd 77 53 9e 3e 4f 9d 89 be 7b 35 0d 3e
       -0.06689135 0.30923054 -0.2687783 0.13789932
000280 21 f3 05 3e de d1 e6 3b 31 77 5d bf bc 92 9a bc
       0.13081028 0.007044061 -0.86509997 -0.018868797
000290 89 ec 74 3e 2c 93 a5 be 39 1b fc be 92 64 b2 3a
       0.23918356 -0.32338846 -0.4923952 0.0013610295
0002a0 40 86 05 3f 60 70 c1 bc fa fd 70 bd ad cd 34 3f
       0.52157974 -0.023613155 -0.05883596 0.70626336
0002b0 d9 fb 7c 3d 1f bb c3 bd ac 31 b1 3d e4 a2 9b 3e
       0.06176362 -0.09557175 0.08652052 0.30397713
0002c0 53 83 f0 3e 13 7a f7 bd 2c 66 98 3b 15 0f 1b be
       0.46975192 -0.12083831 0.0046508517 -0.15142472
0002d0 78 36 a5 3c 49 09 5d 3d 35 01 59 3e a5 12 e9 bd
       0.020167574 0.053963933 0.21191867 -0.11380509
0002e0 7d 87 44 3e 01 74 93 bd ff 1f d1 3e 79 d7 87 3e
       0.1919231 -0.0719986 0.40844724 0.2653158
0002f0 20 94 2d bd c5 41 fd 3d 9c 12 81 bd 05 ee 29 3d
       -0.04237759 0.1236606 -0.063023776 0.04148676
000300 ef ad f5 bd f4 a2 a0 be 40 e1 b7 3e 6c 58 11 bb
       -0.11996066 -0.31374323 0.3591404 -0.0022177948
000310 f3 a8 17 3f 58 f6 88 bc b0 46 71 bd ea a3 18 be
       0.5924217 -0.016719028 -0.058905303 -0.14906278
000320 1c bc 4b 3e f9 ff a0 3d 48 9f 72 3e 9f 8e 00 be
       0.19895977 0.07861323 0.23693573 -0.12554406
000330 47 76 1c 3b 2a 1f 47 bd 15 aa 9a 3e d3 27 13 bf
       0.002387421 -0.048613705 0.30207887 -0.5748264
000340 21 74 19 3e 3b 45 41 3d c5 32 43 be e9 31 38 3c
       0.14985706 0.047185164 -0.19062336 0.011242368
000350 16 3f 10 3d 77 f2 44 ba ec 2f 5b bf d4 e8 49 3d
       0.035216413 -0.0007512937 -0.8562 0.049294308
000360 04 14 32 bd bb 7d 9f bf dd 80 51 3c c3 01 0a 3e
       -0.04347612 -1.2460245 0.012787071 0.13477235
000370 b6 e1 1c 3f 01 9a 5a 3d 33 d3 8b bc c3 ec fa 3d
       0.6128191 0.053369526 -0.017068481 0.1225219
000380 8c b6 c2 3d 80 07 86 3e de 30 d4 bd 67 1c 5e be
       0.09507474 0.26177597 -0.10360883 -0.21690522
000390 53 2f 37 3e 7e be 6e be 0d 1e ec bc 1b 7c 7a 3b
       0.17889147 -0.23314855 -0.028822923 0.0038220945
0003a0 76 bc 38 be 52 71 0d 3e 7b 22 56 bd f5 ad 95 3d
       -0.18040642 0.1381276 -0.052278977 0.0730857
0003b0 74 22 3d be 78 3e a5 3e e4 48 b9 3d 55 5a 0a 3d
       -0.18470174 0.32274222 0.09047106 0.033777554
0003c0 6e 0f 33 be 0f 70 79 be 06 3d 60 3e ee fe 5a bd
       -0.17486355 -0.24359153 0.21898279 -0.053465776
0003d0 3c 6c a7 3c f5 e0 26 3e c5 98 e8 3b 64 2a 21 bd
       0.020437352 0.16296752 0.0070982897 -0.039347067
0003e0 89 23 ff bc 6b 8b 9b 3e b3 bb d2 3d f0 37 8c 3d
       -0.031144874 0.30379805 0.10289707 0.06846607
0003f0 03 b5 6d 3d 8c 55 4b 3f e3 ae 2d 3d 0f 8b 2d be
       0.058033954 0.7942741 0.042403113 -0.16947578

network.0.bias f4 [15]
000000 58 62 62 3d 57 98 c9 be 36 62 b5 be df 71 9a be
       0.05526957 -0.3937404 -0.35426491 -0.30165002
000010 b6 7f ad be bc 3c 8f be 39 b1 ec be 16 a2 a7 be
       -0.33886498 -0.27976024 -0.4622896 -0.3274085
000020 a8 fd a2 bd 04 4b 0a bf 57 08 d5 be 7e 29 a4 be
       -0.07958537 -0.54020715 -0.41607925 -0.32062906
000030 a0 84 d7 be 26 92 f5 be 73 e2 0e be
       -0.42093372 -0.47963065 -0.13953571

network.3.weight f4 [15, 15]
000000 f1 05 3d 3e 44 de 88 3e 65 85 c2 be d4 82 95 3e
       0.18459298 0.26732075 -0.37992397 0.29201376
000010 f4 bd 44 bc a6 8c d3 3e 84 91 c5 be 90 85 73 be
       -0.012008179 0.41318244 -0.38587582 -0.23781419
000020 ef d1 ec 3e 69 c2 a9 be 22 b1 21 3e b5 f5 ee be
       0.46253917 -0.33156136 0.15790227 -0.46671835
000030 c7 9d 09 bf 28 4b f0 bd 9a 1e 75 3e 81 c6 37 be
       -0.53756374 -0.11733085 0.23937455 -0.17946817
000040 cd c2 0f bf 56 f3 11 3e 71 12 fa be 33 98 a3 3e
       -0.5615662 0.14252982 -0.48842195 0.31952056
000050 cd 04 6b bf 04 d2 82 3d 3e d4 8e 3e 8a fc 76 be
       -0.918042 0.063877136 0.27896303 -0.24119774
000060 00 06 d4 bd 28 36 e6 be f1 c1 95 3e ee 3c b4 3e
       -0.10352707 -0.44963193 0.29249528 0.35202736
000070 46 ed 86 3e a7 56 20 be 7b 26 0d 3d 11 f7 10 be
       0.263529 -0.15658055 0.034460526 -0.14156748
000080 95 0f 6e 3d 3d 8b 55 be 90 e6 a4 be cb 40 51 be
       0.05812033 -0.20853896 -0.32207155 -0.20434873
000090 4a 68 e8 3e 54 8d a4 be 94 87 14 3e 1b a4 af 3e
       0.45392066 -0.32139075 0.14504844 0.3430489
0000a0 31 a3 c9 be d6 32 d3 3e aa f1 f1 3e c3 02 46 bd
       -0.39382318 0.41249722 0.47254688 -0.048342478
0000b0 91 a7 5a bd 9a 9e c5 bd ae ec ea be dc ca b7 bc
       -0.05338246 -0.096493915 -0.45883697 -0.022435598
0000c0 c6 0c 02 be a6 45 92 3e 8e 2a 17 bf f6 39 c6 3e
       -0.12700185 0.28568763 -0.5904931 0.38716096
0000d0 bf 97 8c 3e bd 67 94 be 50 4f 6b be 24 c6 ee be
       0.27459523 -0.28985396 -0.22979474 -0.46635544
0000e0 a6 09 d8 3d e8 27 76 3e f6 f5 66 3e 2a 12 5d be
       0.10548715 0.2403866 0.22554764 -0.2158896
0000f0 30 ce 25 bd c8 d1 c8 bd 3d 6b f7 3d 07 00 8e be
       -0.04047984 -0.098056376 0.12081001 -0.27734396
000100 55 17 06 bf 60 3b fe be 41 28 2a be bc 2b 01 be
       -0.5237935 -0.49654675 -0.16616918 -0.1261434
000110 c5 2a 88 bd 0c 7b cc 3e 9f 68 8b be 20 38 c8 3e
       -0.06648783 0.39937627 -0.27228257 0.3910532
000120 c9 6b bc 3e 00 da 91 3e fa 38 7f bd 86 24 f8 be
       0.36800984 0.28486633 -0.062310196 -0.48465365
000130 40 4b 46 be cd 12 75 3e 04 77 27 bf 58 f2 53 3e
       -0.19364643 0.23932953 -0.6541598 0.20697916
000140 48 ef ab be bc 28 b2 3e de 3d 34 3e 01 31 42 bf
       -0.33580995 0.34796703 0.17601725 -0.75856024
000150 2a a9 cb 3e 43 37 31 be 53 d0 66 bd fa cb b7 ba
       0.397775 -0.17306237 -0.056351017 -0.0014022582
000160 14 f5 1f 3e 4d 92 b7 be 06 2e a9 be 02 60 bc be
       0.15620834 -0.35853806 -0.33042926 -0.36791998
000170 82 67 82 3e 18 e5 e1 be 43 94 73 3e e4 d9 f1 be
       0.25469595 -0.44120097 0.23787026 -0.4723655
000180 82 5c 6b 3d cb 65 57 3e 2c 53 ab be 2d 57 34 3e
       0.05746127 0.21034925 -0.33461893 0.1761138
000190 fc 6d ee be ad 6e ba 3e 97 3d 3f 3e 38 1a 79 3e
       -0.46568286 0.36412564 0.18675838 0.24326408
0001a0 25 a4 36 be ec f7 c5 3e d9 5b 88 3e c3 82 37 bd
       -0.17836054 0.38665712 0.26632574 -0.04480244
0001b0 4a 60 22 3f 0b 66 98 bc 4d 0f 00 3f fe 01 8a bd
       0.63428175 -0.018603345 0.5002335 -0.06738661
0001c0 a4 de 84 be 7e 75 19 3f 89 1b 37 be 96 e4 c7 3e
       -0.2595111 0.59944904 -0.17881598 0.39041585
0001d0 45 c4 1e bd 4c b0 53 be fe 93 c9 3c 7d 41 49 3e
       -0.038761396 -0.2067272 0.024606701 0.19653888
0001e0 3e ea f3 be e3 5b ba be 41 5a 65 3e 21 12 3c bf
       -0.4763965 -0.3639823 0.2239771 -0.7346516
0001f0 6b 27 5e 3e 29 34 f9 be 37 38 8e 3e 15 27 39 bc
       0.21694724 -0.48672608 0.27777264 -0.011300822
000200 4a 34 d9 be 3b f8 9a 3e d7 f1 fd be 4b 0d 8c bc
       -0.42422706 0.3026751 -0.49598572 -0.017096182
000210 cd 91 4d bd 96 7d 55 3e ef e7 02 bf e7 99 57 3e
       -0.050187875 0.20848688 -0.5113515 0.21054803
000220 3d bc 8b 3e 44 e8 cd be 71 67 55 bd fa ef 25 3e
       0.27292052 -0.40216267 -0.052100603 0.16204825
000230 9b d3 a2 3e 58 da db be 5f 3f 41 be 75 2b e0 3e
       0.31802067 -0.4294002 -0.1887183 0.43783155
000240 c0 07 82 be 31 2a 60 3e 3e 95 7f be 34 9a 64 be
       -0.25396538 0.21891095 -0.24959275 -0.22324449
000250 55 77 7c bb 4f 2c 52 3c 44 cf e2 bd 48 a8 5e be
       -0.0038523276 0.012827947 -0.11074689 -0.21743882
000260 d4 e4 a2 3e c7 66 ab be c0 37 80 bd 29 c4 93 be
       0.31815207 -0.3347685 -0.062606335 -0.28860596
000270 f9 a6 bd 3e b1 e3 89 bd 35 05 aa be 94 3d a6 3d
       0.37041453 -0.06732882 -0.33207098 0.08117214
000280 2d bb 1e bf c8 5a c7 3d 29 28 e9 3e 4a 0d c6 3e
       -0.6200436 0.09734112 0.45538452 0.38682014
000290 92 ba df bd 63 bd ec 3d c3 3c 56 3e 13 36 e5 bd
       -0.10924257 0.1155956 0.20921616 -0.111919545
0002a0 ff 59 ae 3e 79 28 5f bc 88 13 11 3f 50 07 c0 be
       0.34053037 -0.013620489 0.5667043 -0.3750558
0002b0 84 0e a6 be 83 0c e2 3e 4a 8b bb be 7d 57 dd 3d
       -0.3243295 0.4415017 -0.36629707 0.10807703
0002c0 3e 8d 05 be 69 de d1 be 70 c9 c9 bb b0 0a a5 3e
       -0.13042161 -0.40989998 -0.0061580464 0.32234716
0002d0 c0 09 86 be 32 fd 4f be 8e 5e 00 3f 6b b0 99 bd
       -0.26179314 -0.2031143 0.5014428 -0.07504352
0002e0 8d cb 0b bf e5 30 63 be 03 29 ca 3e 40 56 10 bd
       -0.5460747 -0.2218662 0.39484414 -0.035238504
0002f0 74 53 7f be 1f ce 58 3e b9 2c dc be 3c 89 6c 3c
       -0.24934179 0.21172379 -0.4300287 0.014437016
000300 79 06 17 3e e6 a5 a4 3e 7f 0c e5 bd 98 3e aa 3d
       0.14748563 0.3215782 -0.11184024 0.0831272
000310 37 d5 21 be 7b 0a b8 3e 28 de 15 be 0f 13 5f be
       -0.15803991 0.35945496 -0.14635527 -0.21784614
000320 0b d7 c1 be 79 61 b9 be 13 c0 ea 3e e0 24 27 bd
       -0.37859377 -0.36207178 0.45849666 -0.04080665
000330 01 e9 4e be e3 99 73 3c a9 a4 a9 3e f2 2e c9 3e
       -0.20206071 0.014868232 0.33133438 0.3929363
000340 65 ed 39 be 6a 3c e7 3d 19 a6 97 3e 73 ff 3c 3e
       -0.18156965 0.1129082 0.2961891 0.18456821
000350 ab c3 a8 bd bd 00 07 3f a8 cc 91 bc 63 4c f3 3e
       -0.08240446 0.527355 -0.017797783 0.47519216
000360 35 65 82 be fa c5 a2 be a8 81 19 3f fc 17 a9 be
       -0.2546784 -0.3179167 0.59963465 -0.3302611
000370 22 f4 97 3e 79 98 cf bd 8d 37 05 be 61 78 43 3d
       0.29678446 -0.10136504 -0.13009472 0.047722224
000380 32 52 9e 3e
       0.30922085

network.3.bias f4 [15]
000000 8b b7 5e 3a 8b f7 83 be c6 1b d2 bd 4d 97 19 be
       0.0008495978 -0.25774798 -0.102592036 -0.14999123
000010 7f 79 cd bd ae 1b 40 3e 70 23 ce bd 38 71 ae bc
       -0.10032939 0.18760559 -0.10065353 -0.021294221
000020 32 8a a2 3d e9 8e e1 bd c1 46 c5 bd 3b fd d6 bc
       0.07936515 -0.11013586 -0.09632636 -0.026243797
000030 27 eb 8f bd 72 fb cf bd df ed 98 bb
       -0.070272736 -0.10155381 -0.0046670283

network.6.weight f4 [15, 15]
000000 98 f0 53 bf 8b e1 ba 3e 4f 2c 4f 3e 67 b2 0b 3f
       -0.8278899 0.365002 0.20231746 0.54569095
000010 ac ff f1 3e 50 7c dd 3d a6 4d 19 3f 5d e6 40 bf
       0.47265375 0.10814726 0.5988411 -0.75351506
000020 a7 27 27 3e 3e 8b 65 be f0 a7 ee 3e 72 13 83 bf
       0.1632372 -0.22416398 0.466125 -1.0240309
000030 40 7a 91 3e 6f 3c 46 3e 18 e1 55 bf 24 a0 89 3e
       0.28413582 0.19358991 -0.8354659 0.2687999
000040 e3 a6 48 be 9b 2b 58 bf cb f0 ba be 4a 40 ac bd
       -0.19594912 -0.84441537 -0.36511835 -0.084107
000050 41 49 05 bf 60 e2 d2 be c3 51 39 3e a5 92 15 bf
       -0.520649 -0.41188335 0.18097596 -0.58426887
000060 4f 05 ca 3e d5 4f cf bd 17 b3 ba 3c 45 3e 09 be
       0.39457175 -0.101226486 0.022790475 -0.1340266
000070 b6 91 20 bf 1f 49 67 bd 7d 13 df 3d e0 87 cc 3d
       -0.6272234 -0.056466218 0.10892389 0.099868536
000080 3b 2d b4 be c3 e6 7c 3a 1d a3 ba be 2f a3 0c bf
       -0.35190758 0.0009647423 -0.3645257 -0.549365
000090 41 b4 4c 3d b9 b4 4c bd bb 8a e5 be 65 9f f2 3e
       0.04997659 -0.049977038 -0.44832405 0.47387233
0000a0 f9 81 25 be 9e 98 19 3e 31 d1 37 be 7f 69 09 bf
       -0.16162862 0.14999625 -0.17950894 -0.536766
0000b0 0a 92 03 3e 16 4f 22 bf d9 bf 88 3e 90 eb e0 3d
       0.12848678 -0.63401926 0.26708868 0.1098243
0000c0 d5 c8 7f 3e 0a 5e ec 3e fa 44 6c 3e 09 3a 11 3f
       0.24978955 0.46165496 0.23073187 0.5672918
0000d0 7e 6f 08 bf 26 97 21 3f 0a e0 98 be 1a 5d 0b 3f
       -0.53295124 0.6312126 -0.29858428 0.54438937
0000e0 cc c0 24 bf 97 b8 b0 3e 1d 62 a3 3d 2f 70 e5 be
       -0.64356685 0.3451583 0.07977698 -0.44812152
0000f0 6e 48 fa be 25 de c5 3e b3 f1 09 3f d1 11 bf 3e
       -0.48883384 0.38646045 0.5388443 0.3731828
000100 09 ce 20 3f ec a0 10 3d e7 b1 c3 3e fd c8 62 be
       0.62814385 0.035309717 0.38221666 -0.22146983
000110 e1 e8 9b 3e 90 d4 74 be 19 ff dc 3e a0 e9 ac be
       0.3045111 -0.23909211 0.43163374 -0.33771992
000120 0c fa 0b 3f 16 9f eb 3e c0 6c a4 be da bf 4b 3e
       0.54678416 0.4601981 -0.3211422 0.19897404
000130 c1 e6 3a be 0b c3 54 bf 6c 20 b7 be 7f 15 b4 be
       -0.18252088 -0.8311011 -0.35766923 -0.3517265
000140 ee 3b ef be 9c 09 a0 be 5a a9 50 3d b7 4c 1f bf
       -0.4672541 -0.3125733 0.050942756 -0.6222643
000150 6d 6e 4a 3e 85 a1 0b bf 6f 1b ac 3d 2e 3a 66 be
       0.19768687 -0.54543334 0.0840367 -0.22483131
000160 88 c5 29 bf 5e 65 fd bb 0c f0 a8 bd 53 12 54 be
       -0.66317034 -0.007733031 -0.0824891 -0.20710115
000170 c0 b1 29 bf 14 3f 84 bd b9 80 09 be f7 06 12 bf
       -0.6628685 -0.06457344 -0.1342801 -0.5704188
000180 08 c7 5d 3d c3 ba c3 bd 45 53 33 bf d4 83 8a 3e
       0.05414489 -0.09557106 -0.70048934 0.27053702
000190 1a d7 ff be 97 27 96 3e 8e f8 aa be 10 19 55 bf
       -0.49968797 0.2932708 -0.33392757 -0.8324137
0001a0 f7 b3 6e 3e 78 35 9e 3e 93 ec 54 be e6 e7 14 bf
       0.23310839 0.30900168 -0.20793371 -0.5816635
0001b0 43 59 b0 be 4f 9b 4a be 23 fb 10 bf f6 52 1d 3d
       -0.344431 -0.19785808 -0.56633204 0.038409196
0001c0 80 62 fa 3d e9 4b 00 bf 8c 21 95 3e d2 15 4e be
       0.12225819 -0.5011583 0.29127157 -0.20125511
0001d0 28 90 2a 3e 3a 21 83 be 41 77 44 bf f3 ab 3c 3e
       0.16656554 -0.25611287 -0.7674447 0.18424968
0001e0 84 f6 40 bf 1f b9 93 3e 13 53 bb 3d 74 15 b3 3e
       -0.75376153 0.28852174 0.091467045 0.34977305
0001f0 be 92 a6 3e ac d2 8a bd ab 54 ec 3e c1 13 5d bf
       0.3253383 -0.06778464 0.46158347 -0.8635827
000200 58 1e dc 3e a1 2d 78 be c9 0b d0 3e db 81 4c bf
       0.429919 -0.24236156 0.4063399 -0.79885644
000210 e9 ff 28 3e b0 6f a1 bd 68 de 40 bf c5 78 5b be
       0.16503872 -0.07882631 -0.75339365 -0.21432789
000220 d0 6a 15 3e 5f 3e 3a 3f 14 a7 bc 3e 9a f7 af 3e
       0.14591527 0.7275142 0.3684622 0.34368593
000230 7a 2e ae 3e d4 8a 98 3e 74 fc 41 bd 43 f9 0a 3f
       0.34019834 0.29793417 -0.0473599 0.54286593
000240 06 e6 fe bd 48 36 2c 3e 7f 61 a6 bd ae 1f 3f 3e
       -0.12446217 0.16817582 -0.08124065 0.18664429
000250 18 3f 06 3f 7f f4 9a bd cb cc 28 bf 07 b7 22 3f
       0.52440023 -0.07566165 -0.6593749 0.6356053
000260 8c a8 26 3e 6e 83 06 3f ba 04 bb 3e 04 7f 07 3d
       0.16275233 0.52544296 0.36527044 0.033080116
000270 7a 55 84 3e d0 09 3d bf 34 10 09 3f 83 8e b9 be
       0.25846463 -0.738431 0.5354035 -0.3624154
000280 b9 aa bd 3e a5 1d 7d bf d9 e7 8e 3e 1a 51 0b 3e
       0.37044314 -0.9887336 0.2791126 0.13605157
000290 c0 f8 3b bf 3a 51 65 3e c5 f0 91 be d1 7b b5 be
       -0.7342644 0.22394267 -0.28504005 -0.35446027
0002a0 32 87 70 be 2e 05 11 bf 94 61 0d bf ab d9 2c be
       -0.23489073 -0.5664853 -0.5522702 -0.16879909
0002b0 57 a3 e1 3c 0a 0b 2f bf 4b 50 c6 3e 92 60 07 bf
       0.027543707 -0.6837622 0.38733134 -0.5288173
0002c0 3f eb 82 3d f1 26 6f be 0e ef 0e bf 8d df 77 bd
       0.06392526 -0.23354699 -0.5583352 -0.06051593
0002d0 be 33 35 bf 9c 68 ca 3e a2 82 09 3e 7f 71 b9 3e
       -0.7078208 0.39532936 0.13428739 0.36219403
0002e0 e4 02 b2 3e cd 07 90 3d 20 3e ee 3e a0 0b 20 bf
       0.3476783 0.07032738 0.46531773 -0.6251774
0002f0 1d dc ec 3e 53 d0 b4 be 8c 2d be 3e e3 43 62 bf
       0.46261683 -0.3531519 0.37144125 -0.88384837
000300 d9 97 a8 3e 5c 03 f3 3d db 46 37 bf 07 5d 38 bf
       0.3292835 0.11865875 -0.7159249 -0.7201695
000310 db e9 5e 3e e6 eb cf 3d 41 84 57 3f 37 2e 1b 3f
       0.21768896 0.10152416 0.8418618 0.60617393
000320 99 f4 39 3e 11 45 f4 3e 99 33 34 bf 60 7d 85 3e
       0.18159713 0.47708943 -0.7039123 0.26072216
000330 8c 80 c7 be 49 20 d2 3e 29 66 4c bf 8f 8b 0f 3f
       -0.3896526 0.41040257 -0.79843384 0.56072325
000340 51 63 f9 bd cf 60 0d bf 07 e7 ab be e0 aa d9 3e
       -0.12177146 -0.55225843 -0.33574697 0.4251318
000350 44 81 1c 3f f1 19 1b 3e 54 c8 13 3f ce 4e 92 3e
       0.61134744 0.15146615 0.5772755 0.28575748
000360 fc a5 9c 3e 6a ea 37 be 32 d2 08 3f b9 d0 0a bf
       0.30595386 -0.17960516 0.5344573 -0.54224735
000370 e5 3f bb 3e b4 49 07 be 0d 44 d8 3e 57 01 e7 3e
       0.36572185 -0.1321171 0.4223942 0.4511821
000380 c7 87 89 be
       -0.26861402

network.6.bias f4 [15]
000000 43 81 0a 3e 5b 71 5a 3d f1 84 80 3d 87 7a 90 3d
       0.13525872 0.05333076 0.062753566 0.0705462
000010 7f 9a 3f 3e e5 e4 a5 3d 16 48 af 3c 1e ab bd 3d
       0.1871128 0.08100299 0.021396678 0.09261154
000020 26 97 65 3d 0e cd bd 3d 36 71 24 3e 22 e4 07 3e
       0.05605235 0.09267627 0.16058812 0.1327062
000030 ef 10 fc 3d 29 9a 7d 3d 43 d1 49 3e
       0.12307917 0.061914597 0.19708733

network.9.weight f4 [15, 15]
000000 bb 75 22 bf 5f 6f c8 3e 9d 1e 28 3e de d2 16 bf
       -0.6346089 0.3914747 0.16417928 -0.5891551
000010 19 28 12 bf 56 6d 4f 3e 06 c3 1e 3f 0e 68 b3 3e
       -0.57092434 0.20256552 0.6201633 0.35040325
000020 3d db f4 be f4 b1 4f bf e1 17 db be 8c 2c 7c 3e
       -0.47823516 -0.8113091 -0.42791656 0.24626368
000030 69 cb 53 bf 49 5a cd be 8d bf e1 be 12 29 05 bf
       -0.82732254 -0.40107945 -0.44091454 -0.52015793
000040 d4 37 86 3e 8a ca ae 3e d2 47 55 bf 30 84 2d bf
       0.26214468 0.341389 -0.83312714 -0.6777983
000050 94 80 a1 3e 44 05 9f 3e f7 08 49 bd 20 00 31 bf
       0.3154341 0.31058705 -0.049080815 -0.69140816
000060 79 09 76 bf 0a 6f 31 bf 86 85 0b 3e 7e 84 64 bf
       -0.96108204 -0.6931006 0.13625154 -0.8926467
000070 45 be 12 bf 24 11 59 bf 0a d9 23 bf a9 4f c4 bd
       -0.5732158 -0.8479178 -0.6400305 -0.095855065
000080 6d c6 5e 3e 21 3b 15 bf a2 38 35 be 3e 5d 69 3e
       0.21755381 -0.5829335 -0.17697385 0.22789475
000090 e9 55 4d 3e cb 64 db 3a 18 4a 1e bf 59 f2 d6 be
       0.20052303 0.0016738413 -0.6183181 -0.41981772
0000a0 1a 2c fb be be a8 72 3e 39 13 05 bf ce 47 01 bf
       -0.49057084 0.23697183 -0.51982456 -0.5050019
0000b0 52 6d 89 be dc 8b 82 3e 83 24 73 be 76 fb 2c bd
       -0.26841217 0.2549733 -0.23744397 -0.042232
0000c0 f6 cf cb 3e 6a f3 d0 3e 82 13 2f be 12 49 af be
       0.398071 0.4081071 -0.17097285 -0.34235436
0000d0 73 2f 0f be 2b 65 c4 3e 37 d3 9c 3e 53 07 04 3f
       -0.13982944 0.38358435 0.30629894 0.51573676
0000e0 b3 9c a1 be 86 e0 0b 3f 7f 97 8a 3e a8 00 44 3e
       -0.31564865 0.5463947 0.27068707 0.19140875
0000f0 85 9e f7 be 9d 1b 95 3e 29 f7 00 3f 75 e6 3a bf
       -0.48363128 0.2912263 0.50377136 -0.730079
000100 7b 00 2e be 62 91 87 3e 61 30 3b 3e 50 57 a5 3d
       -0.16992371 0.26478106 0.18280174 0.08073294
000110 4e 0b d5 be 5a b5 1c bf 7e 48 23 bf 69 45 d2 3e
       -0.41610187 -0.6121422 -0.6378249 0.4106858
000120 36 c7 0f bf 6c 60 f2 be 88 23 e8 be d8 61 0b bf
       -0.56163347 -0.4733919 -0.45339608 -0.5444617
000130 9f 9c 5c 3d 0c ce 95 3e e6 98 18 bf ee 01 b9 be
       0.053860303 0.29258764 -0.59608305 -0.36134285
000140 3d 7b 81 3e 7d 48 9f 3e ae 95 43 3d 80 e1 b9 be
       0.25289336 0.31109992 0.047750168 -0.36304855
000150 5e 30 3e bf 11 e1 c0 be 3c 68 8d 3e 12 0a 19 bf
       -0.7429255 -0.37671712 0.27618587 -0.5978099
000160 d7 4c c8 be 0a df e3 be d6 18 fa 3e a3 83 b3 be
       -0.39121124 -0.44506103 0.48847073 -0.35061368
000170 cd 21 89 be 92 5e cb 3e aa ef 6f 3e 8f 0d a4 be
       -0.267836 0.3972059 0.23431268 -0.32041594
000180 86 c6 85 be 8e 40 14 be 0c 88 0f 3f 70 81 b4 bc
       -0.26128024 -0.1447775 0.56066966 -0.022034377
000190 96 45 0a 3f 8b ce a8 be 0d 9b 69 3e af cf a7 3e
       0.5401243 -0.3297008 0.22813053 0.32775638
0001a0 ee 04 96 3d 52 4f 06 bf 90 b0 9a 3e 6f 28 b6 3e
       0.07325159 -0.52464783 0.30212831 0.35577723
0001b0 8c 18 46 bf a3 c5 06 bf 50 7b 9d 3d 58 5c f8 3e
       -0.77381206 -0.5264532 0.076895356 0.48507953
0001c0 d2 a1 4a 3e d8 e5 61 bf c8 7c 3f bf f1 9b f5 be
       0.19788292 -0.8824134 -0.74799776 -0.47970536
0001d0 40 ce a6 3e 65 16 03 bf 98 23 00 bf 14 79 14 bf
       0.3257923 -0.51206046 -0.5005431 -0.5799725
0001e0 28 41 2b bf 68 ff 42 3d 23 d8 4f 3e 47 e9 46 bf
       -0.66896296 0.047606856 0.20297293 -0.776997
0001f0 f3 0e 2e bf 95 f2 77 3c 16 05 a5 3e a3 f7 87 3e
       -0.6799156 0.01513352 0.32230443 0.2655612
000200 6d 2d 36 bf 08 69 ee be 2e 8b 2e bf d1 38 6c 3e
       -0.71163064 -0.46564507 -0.6818112 0.23068549
000210 4d 38 2b bf 63 b8 17 bf 97 5b b9 be af de e2 be
       -0.66882783 -0.59265727 -0.3620269 -0.4431052
000220 01 b6 23 3e 7c 68 4a 3e b4 35 2f bf d0 1d 80 be
       0.15987398 0.1976642 -0.6844132 -0.25022745
000230 dd 1c a0 3e ea 63 21 3e 50 f7 15 3c 58 35 4c bf
       0.3127202 0.1576077 0.009153202 -0.79768896
000240 21 06 18 bf ff 51 20 bf 44 b3 33 3e 34 f1 24 bf
       -0.5938435 -0.62625116 0.17548853 -0.64430547
000250 b1 09 d9 be fb 61 97 be f0 7d d9 be 47 57 6f 3e
       -0.42390206 -0.2956694 -0.42478895 0.23373137
000260 c3 19 dc 3e 34 22 03 bf 50 da 20 be 6e 32 77 3e
       0.42988405 -0.51224065 -0.1570828 0.24140331
000270 5a cd 66 3e 0f 79 d2 3e 32 f2 e6 be 1d 17 d8 be
       0.22539273 0.41107985 -0.45106655 -0.42205134
000280 0b bf 2f bf ce 4c 9f 3e 1d 85 d0 be 4c 7f c3 be
       -0.68650883 0.31113285 -0.40726557 -0.38183057
000290 ac 2a 85 be 3b 1a 9d 3e 52 c5 85 be cb 66 22 be
       -0.2600912 0.30684075 -0.26127106 -0.15859525
0002a0 02 cc e4 3e f9 a0 3f 3e b9 7a 51 be 1d a3 4b be
       0.44686896 0.1871375 -0.20456971 -0.19886442
0002b0 7d 2c 06 be 72 31 a9 3e c8 ed 1a 3d 31 ff f5 3e
       -0.13102908 0.33045536 0.037824422 0.48046258
0002c0 91 df ae be e7 92 af 3e bd 53 9b 3e 0e f1 19 3e
       -0.34154943 0.34291765 0.30337325 0.15033361
0002d0 f8 cf 0d 3f bb 68 b9 be 0f e0 b0 be c5 64 df 3e
       0.5539546 -0.36212716 -0.34545943 0.4363157
0002e0 df 2e 8d 3e 84 40 91 be a4 ea ba be 25 cc 31 be
       0.27574822 -0.28369534 -0.36507142 -0.17363031
0002f0 97 85 23 3f 95 e6 e0 bc 3d 98 75 3e 48 32 ca be
       0.63875717 -0.0274537 0.23983856 -0.39491487
000300 71 50 63 3e f5 e8 e7 3e 87 90 86 3e f9 f5 22 3f
       0.22198655 0.4529492 0.2628214 0.63656574
000310 fc d7 99 be b6 1c a4 be b0 e6 38 3e 1d 45 42 3e
       -0.30047596 -0.32053155 0.1805675 0.18971677
000320 d5 3e b5 be 3b bb b5 be 01 fe 11 be 92 e8 3a 3f
       -0.353995 -0.35494408 -0.14257051 0.73011124
000330 e5 bd 9c 3e 0a 89 ec 3e f9 23 c4 be 80 e7 39 3f
       0.30613628 0.46198303 -0.38308695 0.72618866
000340 87 29 b1 3e 36 be 5a 3e a8 b4 27 bf ef dc 65 3e
       0.34601995 0.21361622 -0.65510035 0.2244756
000350 68 22 17 3e 13 97 1a bf 19 13 19 bf 4f 8e 8a 3e
       0.14759219 -0.6038677 -0.59794766 0.27061698
000360 7e 15 8c 3e ec f8 f8 3d af fa 4b bf 5f 69 62 bf
       0.27360147 0.12156853 -0.7967939 -0.88442034
000370 7b b4 26 bf d0 c5 e7 3c 47 6b 14 bf 9e 08 d4 be
       -0.6511914 0.028292567 -0.5797619 -0.41412824
000380 c3 46 23 bf
       -0.6377985

network.9.bias f4 [15]
000000 d3 2a de 3e d1 d8 eb 3e 89 fd 0a 3f d1 3f e4 3d
       0.43392047 0.46063855 0.54293114 0.111449845
000010 ed 73 dc 3e de 9f f4 3e 70 8c 12 3e e0 b1 08 3f
       0.43057194 0.4777822 0.14311385 0.53396416
000020 e3 31 01 3f 19 cf d5 3e 53 39 e8 3e f6 e9 e5 3d
       0.50466746 0.41759565 0.45356235 0.11226265
000030 88 ee 1c 3e 14 a8 1c 3e c6 c9 d8 3e
       0.15325367 0.15298492 0.4234144

network.12.weight f4 [1, 15]
000000 a0 b5 00 bf 4c 4e 12 bf 31 69 24 bf 40 0e b0 3e
       -0.5027714 -0.5715072 -0.6422301 0.34385872
000010 a4 88 f4 be 75 39 1f bf 1b fd cb 3e c1 b9 01 bf
       -0.477605 -0.6219705 0.39841542 -0.5067406
000020 78 f6 15 bf f5 04 1a bf 58 6d cb be 6b 41 c9 3e
       -0.58579206 -0.60163814 -0.3973186 0.39307722
000030 29 59 bb 3e 7a 19 84 3e 7c a3 0c bf
       0.3659146 0.25800687 -0.5493696
