models/AnomalyDetector_20250528_162105.pth (torch, 60805 bytes, 9 tensors)

network.0.weight f4 [64, 9]
0.14734887 0.26088056 0.06549129 0.3414351 0.2540343 0.3807151 0.17109233 0.20054273
-0.17637178 0.33234915 0.07162945 -0.17269795 0.15692976 -0.1969594 0.12996708 0.3550907
-0.30322626 0.08914136 -0.17880106 0.040261198 -0.26015255 -0.10342144 0.11922343 0.23850745
-0.16924143 0.2356287 0.14491972 0.030507665 -0.34828132 -0.23280615 0.17187124 0.16076057
0.2792689 -0.11276245 0.3769954 -0.024247175 -0.3071244 -0.19653054 0.010855614 0.15143979
0.1736594 0.018692033 0.2722874 -0.13445826 0.21597607 0.048252165 -0.16503178 -0.45637694
0.27755582 -0.0067962594 0.23693979 0.023192564 0.17947228 -0.35148457 0.1640181 0.15735064
0.15424842 0.12467744 0.1127114 -0.34340164 -0.05786982 0.2335229 0.24632663 0.10046151
-0.16611212 -0.18428785 0.100198455 0.1774941 0.22078948 -0.08840549 0.012270253 0.38972977
0.07754944 -0.052734606 0.34989062 0.24611954 -0.15706426 0.12368483 0.09879656 0.08857296
-0.13925008 0.21847971 -0.2134213 -0.0057943696 0.17344251 -0.05692169 -0.32453018 -0.0877418
-0.22873412 -0.2422625 -0.31933725 -0.034784783 0.17845382 0.034653526 0.06767729 -0.098326854
0.04164873 -0.19182472 0.26171255 -0.046997294 0.078867376 -0.29848993 -0.15829197 0.007280167
0.3352776 0.2364997 0.24232984 0.18064374 0.45606124 0.18452282 -0.23181275 0.040347308
-0.24043317 0.09304649 -0.15348272 0.16922449 0.27157798 -0.32457283 0.14745377 -0.016181758
-0.14495754 -0.35606307 0.2394951 -0.16163427 0.34042138 -0.010666323 0.20614627 -0.041752294
-0.070532 0.11723143 -0.1310492 0.09028688 -0.18281136 0.113789044 -0.400413 -0.04429516
0.30467498 -0.23305646 0.14444809 -0.27042282 0.16493644 0.21886502 -0.1181597 -0.13486888
-0.42925465 -0.359151 0.22672555 -0.25248152 0.0064599006 0.20091777 0.210932 -0.23245439
-0.05068347 0.16536425 0.26187503 0.0002915955 -0.007245467 -0.26697308 0.36311382 -0.00086041144
0.32432142 0.3536828 -0.14104106 0.037322585 0.05822268 -0.07994203 -0.25008547 -0.029685138
-0.34217104 0.053300627 0.3901185 0.14142723 -0.32558626 -0.12081254 0.35987952 -0.12306374
-0.05726829 -0.3262001 0.2645756 -0.36653274 0.13847397 -0.24080977 0.29155633 -0.094694816
-0.17868806 -0.28661638 0.23061576 0.32701287 -0.2694506 0.019590832 0.3585141 0.13104385
-0.21084353 -0.027923988 -0.35237727 0.0013268947 -0.1372532 -0.024274204 0.121655874 0.19357102
0.34157157 -0.09096203 -0.11140745 0.28109986 -0.12120609 -0.13036577 -0.29671842 -0.18915556
-0.15204626 -0.31324255 -0.1469879 -0.29972625 -0.096521236 0.27922934 0.31025678 -0.2048388
0.056717414 -0.1567813 0.38421246 -0.031342335 -0.18750381 -0.18490887 0.025888687 0.22547573
-0.2606716 -0.29977056 -0.27633342 -0.41802198 -0.2887819 0.17722717 -0.31381395 -0.10825423
0.043938816 -0.29171377 -0.36061218 -0.041960347 0.11694188 0.32017106 0.10422071 0.056993365
0.16990918 0.12720056 -0.22473235 0.28696838 -0.09431322 0.08642866 0.015240703 -0.36039293
-0.20719096 0.021865971 -0.20037866 -0.23538293 0.37080437 0.26073787 -0.3267045 0.24587625
00000000: 9fe2 163e 2392 853e 4c20 863d 95d0 ae3e
00000010: c910 823e 17ed c23e d432 2f3e 135b 4d3e
00000020: ce9a 34be ab29 aa3e 76b2 923d bbd7 30be
00000030: 32b2 203e baaf 49be 1716 053e 73ce b53e
00000040: 7940 9bbe bf8f b63d a017 37be ede8 243d
00000050: b732 85be 9fce d3bd 6a2b f43d 4c3b 743e
00000060: a04d 2dbe a648 713e d665 143e 36eb f93c
00000070: ee51 b2be bc64 6ebe 04ff 2f3e 6b9e 243e
00000080: 55fc 8e3e 00f0 e6bd 8b05 c13e 03a2 c6bc
00000090: 693f 9dbe 4d3f 49be bfdb 313c 0813 1b3e
000000a0: c5d3 313e 0920 993c 4169 8b3e 6daf 09be
000000b0: d528 5d3e 10a4 453d 17fe 28be 3daa e9be
000000c0: cc1b 8e3e 28b3 debb 58a0 723e 55fe bd3c
000000d0: 95c7 373e c9f5 b3be 5cf4 273e 8720 213e
000000e0: 4cf3 1d3e e356 ff3d 3cd5 e63d 57d2 afbe
000000f0: e808 6dbd a120 6f3e 0c3d 7c3e c4be cd3d
00000100: 4c19 2abe f4b5 3cbe d934 cd3d 03c1 353e
00000110: a316 623e f00d b5bd 2c09 493c a98a c73e
00000120: 3ed2 9e3d 3e00 58bd dd24 b33e c306 7c3e
00000130: 74d5 20be 794e fd3d da55 ca3d bd65 b53d
00000140: 9397 0ebe 25b9 5f3e 1d8b 5abe b2de bdbb
00000150: ea9a 313e b826 69bd d228 a6be f9b1 b3bd
00000160: 4739 6abe a913 78be 2c80 a3be 7d7a 0ebd
00000170: 99bc 363e dbf0 0d3d 649a 8a3d 975f c9bd
00000180: dc97 2a3d b36d 44be 30ff 853e 3c80 40bd
00000190: 3885 a13d acd3 98be 4a17 22be 788e ee3b
000001a0: 81a9 ab3e fa2c 723e 5025 783e acfa 383e
000001b0: dc80 e93e 8df3 3c3e 5260 6dbe 3843 253d
000001c0: 1d34 76be 288f be3d 932a 1dbe 2f49 2d3e
000001d0: 450c 8b3e 692e a6be 1ffe 163e 9b8f 84bc
000001e0: c06f 14be e64d b6be 343e 753e 7483 25be
000001f0: b64b ae3e cdc1 2ebc 0218 533e 7404 2bbd
00000200: 1573 90bd 0817 f03d c331 06be 54e8 b83d
00000210: e732 3bbe 3b0a e93d ef02 cdbe d76e 35bd
00000220: 5cfe 9b3e 5aa6 6ebe 33ea 133e dc74 8abe
00000230: 19e5 283e 271e 603e b6fd f1bd 111b 0abe
00000240: 44c7 dbbe a4e2 b7be be2a 683e 4245 81be
00000250: 93ad d33b 63bd 4d3e 8ffe 573e 8608 6ebe
00000260: 7899 4fbd 3f55 293e 7c14 863e 49e1 9839
00000270: 626b edbb b2b0 88be 0eea b93e 3c8d 61ba
00000280: 750d a63e e915 b53e 116d 10be 91df 183d
00000290: e87a 6e3d a6b8 a3bd 340b 80be 3f2e f3bc
000002a0: 0b31 afbe c251 5a3d 9dbd c73e 4dd2 103e
000002b0: 3eb3 a6be 916c f7bd 2142 b83e d808 fcbd
000002c0: 2892 6abd b303 a7be 7476 873e 2eaa bbbe
000002d0: 1fcc 0d3e d696 76be df46 953e 5bef c1bd
000002e0: 01fa 36be 62bf 92be 8a26 6c3e 3b6e a73e
000002f0: 6ef5 89be f47c a03c 298f b73e 5c30 063e
00000300: 5ee7 57be d9c0 e4bc cb6a b4be 33eb ad3a
00000310: 1a8c 0cbe b2da c6bc b726 f93d 7b37 463e
00000320: 78e2 ae3e 4d4a babd 9729 e4bd 52ec 8f3e
00000330: e63a f8bd 9b7e 05be 7aeb 97be ffb1 41be
00000340: 04b2 1bbe 5461 a0be ff83 16be b875 99be
00000350: edac c5bd 26f7 8e3e fad9 9e3e 43c1 51be
00000360: 8550 683d 478b 20be 7fb7 c43e d260 00bd
00000370: 0001 40be c058 3dbe 8314 d43c 1ce3 663e
00000380: bf76 85be 877b 99be 937b 8dbe fa06 d6be
00000390: 39db 93be 0a7b 353e 39ac a0be 65b4 ddbd
000003a0: 30f9 333d 825b 95be 29a2 b8be 9dde 2bbd
000003b0: 397f ef3d 76ed a33e ab71 d53d e071 693d
000003c0: acfc 2d3e dd40 023e 3d20 66be 85ed 923e
000003d0: 4a27 c1bd 8201 b13d 24b4 793c 6c85 b8be
000003e0: de29 54be 4420 b33c 1030 4dbe 3908 71be
000003f0: 12da bd3e 6f7f 853e d045 a7be fcc6 7b3e

network.0.bias f4 [64]
0.24682233 -0.030330643 0.17111802 -0.1993386 0.21988474 -0.023819203 -0.056442734 0.0973332
0.16898046 -0.05510218 -0.15832384 -0.16019812 -0.016300907 -0.10734757 0.07619545 -0.03515056
-0.32508668 -0.24955752 -0.0615368 0.08946715 0.24204043 -0.051583532 0.046764243 0.038138624
0.08634351 -0.3428574 -0.075427696 -0.19783382 -0.25916523 0.15299606 0.22915024 -0.45259467
-0.12483922 -0.13458131 -0.31867465 -0.1376739 -0.20718277 -0.40569857 0.069277436 0.11115087
0.12317449 -0.2954523 0.1916332 -0.17799918 -0.027358681 0.010670044 0.16569789 -0.42349768
-0.13633211 -0.24975683 0.21053945 0.005776646 0.1746403 0.18955235 -0.31201142 0.12674089
-0.055718563 -0.4382162 -0.18673505 0.007022309 0.004121907 0.12206332 -0.34373528 -0.1382368
00000000: febe 7c3e f877 f8bc 9039 2f3e 6b1f 4cbe
00000010: 7729 613e 7d20 c3bc 7f30 67bd a156 c73d
00000020: 3709 2d3e d3b2 61bd a51f 22be fa0a 24be
00000030: 7b89 85bc 0bd9 dbbd 5c0c 9c3d 09fa 0fbd
00000040: c371 a6be 028c 7fbe 030e 7cbd 8e3a b73d
00000050: 72d9 773e 4149 53bd dd8b 3f3d 3f37 1c3d
00000060: ded4 b03d 018b afbe d679 9abd f394 4abe
00000070: 4eb1 84be 00ab 1c3e 5ca6 6a3e 7dba e7be
00000080: b4ab ffbd afcf 09be 5329 a3be 63fa 0cbe
00000090: b827 54be b9b7 cfbe 54e1 8d3d 11a3 e33d
000000a0: e842 fc3d 8645 97be 7e3b 443e 6b45 36be
000000b0: 501f e0bc 69d1 2e3c b5ac 293e b0d4 d8be
000000c0: a59a 0bbe 41c0 7fbe a797 573e 054a bd3b
000000d0: e8d4 323e 031a 423e f6bf 9fbe 5dc8 013e
000000e0: 2639 64bd e05d e0be 7937 3fbe 661b e63b
000000f0: 1011 873b 55fc f93d 12fe afbe f38d 0dbe

network.3.weight f4 [64, 64]
-0.35427666 -0.00076068484 -0.10294783 -0.14109454 -0.061227743 -0.1339874 -0.083665535 -0.1778557
-0.04805402 -0.18539898 0.19030698 -0.24777544 -0.06179847 0.060027868 -0.10378503 0.03386703
0.019647453 -0.3310967 -0.2624095 -0.15580148 0.1067448 -0.033738095 0.0031506433 0.12066291
0.16834311 0.036207266 -0.08350953 -0.09401921 0.10720534 0.031873107 -0.20048419 -0.0054396503
-0.14270262 -0.032566834 -0.024318919 0.043914307 0.05343604 0.04801161 0.12448841 -0.10976546
0.0760597 -0.06564175 -0.44830453 0.12021035 0.0006495996 -0.06218788 -0.00864337 -0.1745273
0.0064775855 0.03240148 -0.37095448 -0.007984224 0.015689656 0.09147603 0.08594425 -0.16991785
-0.26675203 -0.08325887 -0.049264353 -0.096305035 -0.041705184 -0.13317037 -0.01034901 -0.6926131
0.1961721 -0.13082571 -0.12918669 -0.112313904 -0.10622805 0.06472728 -0.13713993 -0.07910488
0.02901092 -0.14314684 -0.0010900036 -0.16860597 0.04044708 -0.18601757 0.052768145 0.07581413
-0.18819617 -0.122793324 -0.08077102 0.0404777 -0.029477563 -0.120728426 -0.060916867 -0.123701066
0.051960807 0.20610793 -0.06302665 -0.06852159 0.024285434 -0.023902284 -0.06269953 -0.07833015
-0.09913755 0.05653475 -0.060247645 -0.18760476 -0.13681191 -0.058160763 0.121379144 -0.14322402
-0.06951228 -0.22118492 0.09272265 -0.08090107 -0.0030895781 -0.1653773 -0.05073813 0.22374971
-0.20851023 0.047162518 0.18253106 0.101658754 -0.03494155 -0.18311453 0.13445036 0.16090454
-0.17471854 0.15260051 -0.104218125 0.049609233 -0.026848802 0.11243473 -0.064782634 -0.08476655
0.12714586 0.11846937 0.071488775 -0.12847476 -0.048024956 -0.07906877 -0.20821348 -0.017997773
-0.05024199 -0.08128129 -0.05419385 -0.1493711 0.025610095 -0.038454074 0.13873494 0.06840698
0.0020881565 0.026212981 -0.09628179 0.15780598 0.10862025 -0.034789108 0.10694149 0.13880584
-0.012043247 -0.12934257 -0.024922444 -0.02204061 -0.16027169 0.037895437 -0.062619425 -0.078579694
-0.00057592336 -0.086987525 0.021019088 -0.23141229 0.032402523 -0.18504012 0.118160665 0.11154675
0.06898121 0.05027289 -0.023318343 -0.049801935 0.0031917219 -0.11489611 -0.10217541 0.055082124
0.123570345 0.13316996 0.024822919 -0.10099323 -0.08747125 0.03562082 -0.06924786 -0.15427065
-0.0028924297 -0.10767926 -0.028374989 -0.045773853 -0.15128428 -0.08942498 0.07447258 0.08079729
0.08567817 -0.0901781 0.05917267 0.15205151 0.06745308 0.047690857 -0.069611095 -0.18620324
0.11213097 -0.013559535 0.032560967 0.0122631835 -0.10645164 -0.06450435 0.08242418 -0.1399327
-0.01596686 -0.12468636 0.0033329413 -0.0012985409 0.092836514 0.11089361 0.06620256 -0.09632274
0.117616646 -0.11279429 -0.04720168 0.13843603 -0.25018978 -0.03438538 0.17057997 -0.14341009
0.024226908 0.007916127 -0.06449308 -0.063151784 -0.0026618568 0.060784686 -0.021654712 -0.029563874
0.048238393 0.12983114 -0.030324617 -0.24091943 0.14468506 -0.12907645 0.12382089 -0.096774206
-0.02674626 -0.45609596 -0.047938637 0.05698482 -0.0647058 0.050886855 0.111771345 -0.04525606
0.009283407 -0.3349061 -0.32642168 0.014295187 -0.012907315 0.052499585 -0.007584724 -0.13241376
00000000: c063 b5be b268 47ba 50d6 d2bd 167b 10be
00000010: f1c9 7abd fe33 09be d658 abbd ce1f 36be
00000020: 4bd4 44bd 3bd9 3dbe d5df 423e d8b8 7dbe
00000030: 6420 7dbd c8df 753d 3f8d d4bd 28b8 0a3d
00000040: b2f3 a03c 8285 a9be 8a5a 86be 6c8a 1fbe
00000050: 059d da3d f530 0abd 067b 4e3b 1e1e f73d
00000060: 2362 2c3e 124e 143d 0b07 abbd 258d c0bd
00000070: 798e db3d 608d 023d ba4b 4dbe 183f b2bb
00000080: a320 12be cd64 05bd 7838 c7bc 7ddf 333d
00000090: c0df 5a3d d2a7 443d c8f3 fe3d b7cc e0bd
000000a0: 30c5 9b3d 2f6f 86bd 2c88 e5be d830 f63d
000000b0: e449 2a3a b8b8 7ebd ec9c 0dbc 49b7 32be
000000c0: ed41 d43b 6ab7 043d bfed bdbe 43d0 02bc
000000d0: 9887 803c c957 bb3d 8a03 b03d f2fe 2dbe
000000e0: b993 88be a083 aabd 6bc9 49bd 933b c5bd
000000f0: 0ed3 2abd d05d 08be e58e 29bc 184f 31bf
00000100: 57e1 483e 2df7 05be 8449 04be d504 e6bd
00000110: 188e d9bd bc8f 843d 696e 0cbe bd01 a2bd
00000120: 4fa8 ed3c 1695 12be 74de 8eba 0ba7 2cbe
00000130: d6ab 253d 647b 3ebe 6923 583d 7044 9b3d
00000140: 7fb6 40be 117b fbbd 476b a5bd f2cb 253d
00000150: ee7a f1bc 7740 f7bd f783 79bd fc56 fdbd
00000160: dbd4 543d f50d 533e 1e14 81bd 0c55 8cbd
00000170: 3ff2 c63c b9ce c3bc 9c68 80bd 8f6b a0bd
00000180: a108 cbbd fb90 673d 3cc6 76bd 761b 40be
00000190: 6c18 0cbe fb39 6ebd a195 f83d 51a9 12be
000001a0: 745c 8ebd 4d7e 62be 5fe5 bd3d 76af a5bd
000001b0: 857a 4abb ab58 29be c9d2 4fbd a51e 653e
000001c0: b583 55be 7c2d 413d 6ce9 3a3e 7732 d03d
000001d0: df1e 0fbd 6082 3bbe 5bad 093e 29c4 243e
000001e0: 6be9 32be 4f43 1c3e 5070 d5bd 0d33 4b3d
000001f0: 05f2 dbbc 2e44 e63d c2ac 84bd 169a adbd
00000200: 8632 023e 12a0 f23d b568 923d e38e 03be
00000210: d1b5 44bd cfee a1bd ea35 55be 1170 93bc
00000220: 8bca 4dbd ce76 a6bd 5ffa 5dbd bdf4 18be
00000230: 43cc d13c 0582 1dbd 8810 0e3e f518 8c3d
00000240: 74d9 083b 9bbc d63c 632f c5bd e497 213e
00000250: 4b74 de3d 067f 0ebd 2404 db3d 1e23 0e3e
00000260: 0a51 45bc 6172 04be 272a ccbc 828e b4bc
00000270: 431e 24be 3f38 1b3d 9d3e 80bd 64ee a0bd
00000280: 90f9 16ba 8426 b2bd 3930 ac3c 58f7 6cbe
00000290: 82b8 043d 287b 3dbe 38fe f13d 9f72 e43d
000002a0: 0546 8d3d f2ea 4d3d 1c06 bfbc 1dfd 4bbd
000002b0: 352c 513b a74e ebbd 5741 d1bd cb9d 613d
000002c0: 7312 fd3d b55d 083e 6f59 cb3c 8ad5 cebd
000002d0: 2024 b3bd 23e7 113d d2d1 8dbd 20f9 1dbe
000002e0: eb8e 3dbb f286 dcbd aa72 e8bc 5d7d 3bbd
000002f0: 44ea 1abe 7224 b7bd 1485 983d 0d79 a53d
00000300: 0978 af3d 4caf b8bd 0b5f 723d 64b3 1b3e
00000310: d724 8a3d 7d57 433d 4390 8ebd 10ac 3ebe
00000320: eca4 e53d d028 5ebc a65e 053d 85eb 483c
00000330: 5103 dabd db1a 84bd 02ce a83d 854a 0fbe
00000340: efcc 82bc 905b ffbd 7a6d 5a3b cd33 aaba
00000350: 1221 be3d 301c e33d 3595 873d db44 c5bd
00000360: ffe0 f03d b100 e7bd 8c56 41bd 2dc2 0d3e
00000370: e018 80be afd7 0cbd 84ac 2e3e 18da 12be
00000380: 8277 c63c a5b2 013c f314 84bd b955 81bd
00000390: 8c72 2ebb 5df9 783d 3965 b1bc f02f f2bc
000003a0: 9f95 453d 74f2 043e 556b f8bc 95b3 76be
000003b0: 5228 143e 9e2c 04be cf95 fd3d 8e31 c6bd
000003c0: f91a dbbc 6985 e9be 4e5b 44bd ea68 693d
000003d0: 7984 84bd bc6e 503d 60e8 e43d 6b5e 39bd
000003e0: 6e19 183c d078 abbe be20 a7be 5c36 6a3c
000003f0: 3479 53bc ce09 573d 4789 f8bb 7997 07be

network.3.bias f4 [64]
0.07896147 -0.072785616 -0.03281577 0.0022710736 -0.09443244 0.06966515 0.0014629283 -0.0928811
0.08892271 -0.1290439 -0.0740678 0.023587467 0.14064133 -0.006102038 -0.12827073 -0.003257693
0.036098137 0.033160307 0.0075682877 -0.0015586931 -0.039735362 -0.069563955 0.090115726 -0.087490045
-0.106225885 0.042505894 -0.03761689 0.018291643 -0.08441097 0.10601072 0.03773319 -0.051719684
-0.16378354 0.13804677 -0.021532865 -0.03297455 -0.056153737 -0.011680147 -0.105480015 0.08636148
-0.16025497 -0.0028454624 -0.16462325 -0.04476623 -0.061251003 0.11540236 0.07172434 0.065847985
0.09344217 0.019515794 -0.097951055 0.0027522729 0.01967848 -0.13396385 0.0027164745 -0.07761246
-0.14916807 0.0049247253 0.069616474 0.10461899 -0.097279176 -0.06756756 0.08386934 -0.1506502
00000000: 8db6 a13d a010 95bd d469 06bd 4bd6 143b
00000010: cc65 c1bd 9aac 8e3d babf bf3a 7238 bebd
00000020: 1c1d b63d 1624 04be dcb0 97bd 813a c13c
00000030: 4804 103e 9bf3 c7bb 6759 03be 057f 55bb
00000040: a4db 133d 1ad3 073d 66ff f73b 104d ccba
00000050: 8cc1 22bd 8c77 8ebd 988e b83d fb2d b3bd
00000060: f58c d9bd a91a 2e3d 2b14 1abd 5bd8 953c
00000070: a9df acbd 261c d93d 1e8e 1a3d 05d8 53bd
00000080: dfb6 27be 225c 0d3e b165 b0bc 5210 07bd
00000090: 7601 66bd 165e 3fbc e805 d8bd 4ade b03d
000000a0: e119 24be f07a 3abb ff92 28be cb5c 37bd
000000b0: 55e2 7abd 1358 ec3d 36e4 923d 4fdb 863d
000000c0: 9c5e bf3d 96df 9f3c 909a c8bd 7a5f 343b
000000d0: c434 a13c d22d 09be e106 323b 48f3 9ebd
000000e0: 84bf 18be 975f a13b 1593 8e3d 7b42 d63d
000000f0: 4e3a c7bd dc60 8abd b0c3 ab3d 0c44 1abe

network.6.weight f4 [64, 64]
-0.09779565 0.12494775 -0.07482573 -0.06952965 -0.017570112 -0.09641203 -0.050254636 -0.007644224
0.1048144 -0.08796659 -0.034916762 -0.16179699 0.08577628 0.06604829 -0.059672806 0.116445035
-0.0016853056 -0.022795929 -0.25684944 0.11540775 -0.043715026 0.025944727 -0.09971764 -0.2339241
0.11544087 -0.096397705 0.1391089 0.060880482 -0.13911551 0.05356916 0.048759956 -0.17882277
-0.028911036 0.106756434 0.08311526 0.25157806 0.03808676 0.045084916 0.15160266 -0.029032588
-0.0641599 -0.12673849 -0.09583366 0.22827533 -0.012672872 0.020749638 -0.017448785 -0.041705556
0.05494654 0.025692027 -0.2490581 -0.015539651 -0.20703383 0.16581096 0.0023971768 -0.20370424
0.048476692 -0.030636039 -0.0019803292 0.15747343 -0.032068435 -0.07957217 -0.07531172 -0.031242397
-0.10867103 0.046367038 -0.12701757 -0.035218522 0.035680797 0.050935388 0.032954697 -0.0036815885
-0.09544563 -0.012591461 -0.007387774 -0.092802495 -0.11423573 -0.07335931 -0.14482127 -0.14326535
-0.09866823 0.09830405 -0.12297469 -0.10635746 0.11407031 0.24629702 -0.109427236 0.0199845
0.042178478 -0.20736125 0.08863388 -0.038972553 0.108091086 0.07498204 0.016313214 -0.03616973
-0.003372147 0.05715814 -0.17848831 0.10192982 -0.0944309 -0.023664413 -0.09502683 0.0922803
0.18938485 0.012680124 -0.009428696 0.1202298 0.11840965 0.0437232 -0.10312402 0.046921555
-0.09307594 0.113157116 -0.15312134 0.11172233 0.08764479 -0.06796965 -0.023140933 0.030236665
-0.05848367 -0.103564866 -0.08922143 0.038080882 -0.02637226 0.08310646 -0.13259429 0.017112616
-0.027991304 -0.075258605 -0.016973818 -0.090499036 -0.16170475 -0.1111232 -0.039497945 -0.103188306
0.0858647 -0.106899075 -0.12394967 -0.06027185 -0.18100588 -0.06772386 0.074874364 0.012864295
0.17694709 0.014369552 0.07756581 -0.04378627 0.16413192 -0.12512489 0.011415101 0.016740821
-0.14834301 -0.046375416 0.0153631065 -0.08573948 -0.13044353 -0.0029670314 -0.025634816 0.1215709
0.13522494 -0.047011234 0.013480144 -0.1611972 -0.12006391 0.07069367 -0.014685751 0.094363526
-0.04471928 -0.14700168 -0.12690668 -0.033839963 0.014560716 -0.06619106 -0.043353356 0.08321179
-0.025131332 -0.091276474 -0.0069718584 0.086801305 0.0061482913 0.08618274 0.07154565 -0.08588004
-0.0415153 0.004921517 0.028433185 -0.12642768 -0.024774551 0.093244314 -0.15112385 0.027047804
-0.1530638 0.18613566 0.08215832 0.11227095 0.11179842 0.034199316 -0.12552437 -0.07210229
0.00017486422 -0.0048568314 0.074473746 0.11567812 0.030201841 -0.07800314 -0.12649332 0.047049217
0.2041243 0.22673364 -0.024474565 -0.023412237 0.020572245 -0.08644139 0.120567545 -0.22558217
-0.08013027 0.025140505 0.021710807 -0.008406864 0.025577575 -0.087720335 0.17898287 0.0042413813
-0.032799803 0.067883804 0.032629367 -0.041727223 0.014755097 0.08240635 -0.11684534 0.018312993
-0.11423823 -0.028941091 0.05326365 -0.116946734 -0.27008796 0.0069158566 -0.0029452157 0.15131453
0.050608303 -0.016447576 0.006344625 0.19028917 -0.025720293 -0.11114553 0.12865561 0.03598092
0.18259765 0.046832874 0.049417935 0.004383011 -0.09954947 0.021619063 0.043716356 -0.12612826
00000000: 1649 c8bd 9be4 ff3d 3b3e 99bd 9065 8ebd
00000010: 32ef 8fbc ac73 c5bd ced7 4dbd 667c fabb
00000020: efa8 d63d d427 b4bd e104 0fbd 1cae 25be
00000030: 79ab af3d 5344 873d 796b 74bd bc7a ee3d
00000040: 79e5 dcba 87be babc c581 83be e65a ec3d
00000050: 870e 33bd 098a d43c c338 ccbd cd89 6fbe
00000060: 436c ec3d 296c c5bd 9072 0e3e d05d 793d
00000070: 4c74 0ebe 566b 5b3d 85b8 473d 511d 37be
00000080: d6d6 ecbc 1ea3 da3d 5538 aa3d d7ce 803e
00000090: dd00 1c3d f6aa 383d ba3d 1b3e c0d5 edbc
000000a0: 4466 83bd bcc7 01be 7044 c4bd 02c1 693e
000000b0: e1a1 4fbc 25fb a93c c1f0 8ebc 72d3 2abd
000000c0: a00f 613d 1678 d23c 1609 7fbe 059a 7ebc
000000d0: ad00 54be 59ca 293e f419 1d3b d897 50be
000000e0: 7f8f 463d 6ef8 fabc 69c8 01bb b740 213e
000000f0: 315a 03bd bcf6 a2bd 083d 9abd 0ef0 ffbc
00000100: eb8e debd 5deb 3d3d e510 02be 4c41 10bd
00000110: 0726 123d a0a1 503d 81fb 063d ce46 71bb
00000120: 0079 c3bd 6a4c 4ebc 2415 f2bb 3c0f bebd
00000130: 6cf4 e9bd 683d 96bd 074c 14be 27b4 12be
00000140: 9212 cabd a253 c93d 27da fbbd f1d1 d9bd
00000150: b29d e93d 4935 7c3e 631b e0bd 89b6 a33c
00000160: 57c3 2c3d 8256 54be ae85 b53d afa1 1fbd
00000170: dc5e dd3d 2f90 993d 4aa3 853c b626 14bd
00000180: 3dff 5cbb a71e 6a3d a4c5 36be 95c0 d03d
00000190: fd64 c1bd dfdb c1bc 6d9d c2bd 74fd bc3d
000001a0: 1aee 413e 4bc0 4f3c d17a 1abc 0b3b f63d
000001b0: c280 f23d 1917 333d b032 d3bd d130 403d
000001c0: 999e bebd ebbe e73d d7cb 1cbe adce e43d
000001d0: 1d7f b33d ac33 8bbd 0e92 bdbc e2b2 f73c
000001e0: 938c 6fbd d119 d4bd bab9 b6bd b3fa 1b3d
000001f0: a30a d8bc b833 aa3d ccc6 07be c22f 8c3c
00000200: 054e e5bc 2f21 9abd ad0c 8bbc 8f57 b9bd
00000210: ee95 25be 8f94 e3bd 99c8 21bd 6454 d3bd
00000220: d5d9 af3d e7ed dabd 53d9 fdbd 9edf 76bd
00000230: 9b59 39be cfb2 8abd bb57 993d c4c4 523c
00000240: 9e31 353e 456e 6b3c d3da 9e3d 3b59 33bd
00000250: 3312 283e bd20 00be 6706 3b3c 0c24 893c
00000260: 3be7 17be 26f4 3dbd 8ab5 7b3c 2e98 afbd
00000270: fd92 05be 8772 42bb 1b00 d2bc 2afa f83d
00000280: 6878 0a3e da8e 40bd d2db 5c3c e110 25be
00000290: 11e4 f5bd d8c7 903d 819c 70bc aa41 c13d
000002a0: 902b 37bd 9c87 16be d3f3 01be c69b 0abd
000002b0: 1290 6e3c 2e8f 87bd 4a93 31bd f16a aa3d
000002c0: 39e0 cdbc 29ef babd 3074 e4bb e2c4 b13d
000002d0: 9b77 c93b 9480 b03d 8786 923d e0e1 afbd
000002e0: f20b 2abd ad44 a13b b6ec e83c 4276 01be
000002f0: 00f4 cabc e0f6 be3d 36c0 1abe 5b93 dd3c
00000300: c2bc 1cbe 599a 3e3e 9f42 a83d 50ee e53d
00000310: 92f6 e43d 9514 0c3d 7689 00be 5eaa 93bd
00000320: c25b 3739 0e26 9fbb b185 983d a6e8 ec3d
00000330: da69 f73c 1cc0 9fbd 7787 01be aeb6 403d
00000340: f605 513e dd2c 683e e27e c8bc 05cb bfbc
00000350: 2087 a83c 2f08 b1bd 1eec f63d 03ff 66be
00000360: 571b a4bd 76f3 cd3c ddda b13c f1bc 09bc
00000370: 1088 d13c b8a6 b3bd 4947 373e 49fb 8a3b
00000380: 1659 06bd aa06 8b3d 5fa6 053d 2aea 2abd
00000390: 5dbf 713c a9c4 a83d 9c4c efbd 2105 963c
000003a0: bcf5 e9bd de15 edbc fc2a 5a3d c581 efbd
000003b0: f848 8abe 699e e23b 8504 41bb 32f2 1a3e
000003c0: a74a 4f3d 11bd 86bc 92e6 cf3b 2adb 423e
000003d0: 5db3 d2bc 45a0 e3bd 4cbe 033e bb60 133d
000003e0: e1fa 3a3e d4d3 3f3d 766a 4a3d 5c9f 8f3b
000003f0: 98e0 cbbd 761a b13c ec0f 333d c427 01be

network.6.bias f4 [64]
-0.12437979 -0.020703504 -0.19358103 0.089848585 0.09727857 0.11352175 -0.08731007 0.10706808
0.1447467 0.08031414 0.12745346 0.09431858 -0.07462944 -0.17463161 0.02630641 0.049468014
-0.070362054 -0.075636305 0.08636593 0.09444425 -0.07467786 0.13653532 0.11096232 -0.052656353
0.049433727 -0.0455306 0.13722363 0.07731064 0.057287935 -0.057295457 0.124259666 -0.011660217
0.10526803 0.042911317 -0.047232628 0.14671244 -0.015762964 0.10719223 0.067773394 -0.1022245
-0.19114293 0.07301679 0.14602582 0.11062145 0.098123595 0.07453949 0.066021 0.09144068
0.1302694 -0.09104819 0.12961252 0.10926303 0.16586745 -0.060876522 0.0132986205 0.117265455
0.13204253 0.1358619 0.08870823 0.09113524 0.06274691 -0.13531418 0.024691695 -0.14570442
00000000: d5ba febd 659a a9bc 1b3a 46be 8902 b83d
00000010: fd39 c73d 177e e83d 9fcf b2bd 8246 db3d
00000020: 7b38 143e bd7b a43d 2983 023e 1a2a c13d
00000030: 52d7 98bd a1d2 32be 8a80 d73c f99e 4a3d
00000040: fb19 90bd 35e7 9abd 9fe0 b03d fd6b c13d
00000050: b5f0 98bd eacf 0b3e 3640 e33d 30ae 57bd
00000060: 057b 4a3d 4b7e 3abd 5a84 0c3e 0a55 9e3d
00000070: c1a6 6a3d a4ae 6abd da7b fe3d 7f0a 3fbc
00000080: c496 d73d c7c3 2f3d 0077 41bd c93b 163e
00000090: 5521 81bc 9a87 db3d c7cc 8a3d 145b d1bd
000000a0: f9ba 43be d489 953d cb87 153e 808d e23d
000000b0: 06f5 c83d 29a8 983d 0536 873d 4045 bb3d
000000c0: 5765 053e 7977 babd 25b9 043e 4cc5 df3d
000000d0: 28d9 293e a959 79bd 75e2 593c df28 f03d
000000e0: 2836 073e 621f 0b3e a9ac b53d 1da5 ba3d
000000f0: 7481 803d cd8f 0abe 3d46 ca3c 8a33 15be

network.9.weight f4 [64, 64]
-0.08881474 0.013413886 -0.024008624 0.10906428 -0.2766522 0.043601047 0.060391255 0.103108555
0.107454054 0.034489438 0.2774282 -0.025519708 0.13366063 -0.064442225 0.096384 -0.07281592
-0.087021336 -0.0390307 -0.15410563 3.5885874e-05 0.044600666 -0.063125536 0.16485715 0.035715595
0.09996668 0.02577701 -0.2803578 0.06801776 0.13298947 -0.017187174 0.11271049 -0.0062713395
0.047532383 -0.021524483 0.033576794 0.13743645 0.0845585 0.033606492 0.026020546 -0.0033404715
0.099090986 -0.030644746 -0.013488828 -0.0014569295 0.15854685 0.026026549 0.07355694 -0.066441
0.1387562 -0.073316395 0.13916168 -0.0066317134 0.15346746 0.051433567 -0.07791909 0.097377926
0.017339652 0.12652317 0.0921298 0.08322379 0.1552745 -0.19293432 0.14512722 0.09959765
-0.030519769 -0.01510503 0.046922494 0.07201737 -0.21669592 0.024767915 0.07671861 -0.02729361
-0.015331205 -0.13899162 -0.026352374 0.06745849 0.09028322 0.021523505 0.106139585 0.08274929
-0.013288341 0.13515647 0.0013162937 0.08553516 0.11152897 -0.0014017505 0.050303448 -0.067839906
-0.008067612 0.0783238 0.012639109 0.05713564 0.051114943 -0.083477266 -0.053852484 0.04590564
-0.060841013 0.033234257 0.055532046 -0.08745366 -0.061658442 -0.009386451 -0.045483924 -0.07640229
0.04923355 -0.017417597 -0.056774646 0.02473102 0.040836517 -0.013441719 -0.08539142 0.0063732136
0.03830405 0.16629408 0.11820576 0.09197089 -0.031265132 0.06271305 -0.00014874733 -0.10229512
0.0003228891 0.0681136 -0.14023836 -0.076753825 0.007854221 -0.08225266 -0.025934763 -0.016641494
-0.09799935 0.14313914 0.17533523 0.099716954 -0.14021264 0.1311418 -0.12431148 -0.018812044
0.009163342 0.19401176 0.21074137 0.13208044 0.14745168 0.059821885 0.21256484 0.061362214
-0.017286632 -0.056754872 -0.1583091 -0.10476058 -0.06262536 0.07940611 0.032963604 -0.023642875
-0.049469657 -0.081566 -0.14211604 0.11853119 0.00844063 -0.038337406 -0.13112369 0.10131679
-0.11272217 0.08497209 -0.077766694 0.063483484 0.1642121 0.09723006 0.09729762 0.035242867
0.11720144 0.11675869 0.008013894 0.12120462 0.16508637 0.062381994 0.032313265 0.05834072
0.104322225 -0.068052605 0.27003697 -0.080369905 -0.02690239 0.008287346 -0.0047630616 0.06902072
0.010240569 -0.029515868 0.06463293 0.0085791815 -0.0534287 -0.15178101 0.0009553237 -0.037250876
0.07709429 0.101753674 0.1030511 -0.13897848 0.1894763 -0.03598062 0.029649032 -0.096053466
-0.07698691 -0.010522301 -0.20712075 -0.18195094 0.11817435 -0.07127465 -0.089921266 -0.016850358
-0.07755001 0.058372412 0.30472937 -0.033361677 -0.29717663 0.018123616 0.06738702 0.048037615
-0.10579801 -0.095818795 0.36176777 -0.005472803 -0.0926938 -0.16905776 -0.056782648 -0.21697079
0.11661118 -0.10547822 0.094965264 -0.08321453 0.071042605 0.037988227 -0.004798018 0.058184132
-0.11803133 -0.1396789 -0.05132986 0.09972712 0.05399756 -0.014005307 -0.1424577 -0.10012074
0.097723685 -0.20739979 -0.21849975 -0.07628652 0.13051355 0.0014601988 -0.17119488 0.014610779
-0.05415708 -0.08126745 0.023940116 -0.07405681 -0.11136557 -0.07215108 0.036427945 0.08270174
00000000: 81e4 b5bd eac5 5b3c bcad c4bc 185d df3d
00000010: 5ba5 8dbe 0397 323d d25c 773d 942a d33d
00000020: df10 dc3d cc44 0d3d 120b 8e3e b50e d1bc
00000030: 55de 083e 49fa 83bd f964 c53d 8320 95bd
00000040: 3e38 b2bd a8de 1fbd decd 1dbe 2a84 1638
00000050: 30af 363d f647 81bd 50d0 283e 844a 123d
00000060: 55bb cc3d 4f2a d33c 0f8b 8fbe e54c 8b3d
00000070: 642e 083e 1ecc 8cbc c2d4 e63d cf7f cdbb
00000080: 51b1 423d 1d54 b0bc d287 093d 24bc 0c3e
00000090: 022d ad3d f6a6 093d 0a29 d53c d0eb 5abb
000000a0: 37f0 ca3d b10a fbbc 3f00 5dbc 71f6 beba
000000b0: 1b5a 223e a135 d53c 05a5 963d 3812 88bd
000000c0: 1b16 0e3e e826 96bd 6680 0e3e d84e d9bb
000000d0: 9326 1d3e 01ac 523d 0b94 9fbd 146e c73d
000000e0: e30b 8e3c 4a8f 013e 8cae bc3d 3c71 aa3d
000000f0: 4700 1f3e 9390 45be 3b9c 143e daf9 cb3d
00000100: 9804 fabc 167b 77bc cd31 403d d87d 933d
00000110: 89e5 5dbe 15e6 ca3c a61e 9d3d d996 dfbc
00000120: bc2f 7bbc d253 0ebe efe0 d7bc ad27 8a3d
00000130: 69e6 b83d 1052 b03c b65f d93d 7678 a93d
00000140: 58b7 59bc 7566 0a3e 7d87 ac3a 0f2d af3d
00000150: 4d69 e43d f1ba b7ba fd0a 4e3d a6ef 8abd
00000160: 042e 04bc 3a68 a03d 4414 4f3c 1007 6a3d
00000170: e75d 513d 21f6 aabd 6c94 5cbd 8d07 3c3d
00000180: 6d34 79bd a520 083d 9275 633d e81a b3bd
00000190: 908d 7cbd a1c9 19bc 5a4d 3abd ce78 9cbd
000001a0: 1ea9 493d 59af 8ebc 888c 68bd b598 ca3c
000001b0: 3144 273d a83a 5cbc b2e1 aebd 64d6 d03b
000001c0: b5e4 1c3d ff48 2a3e dd15 f23d 3c5b bc3d
000001d0: de0f 00bd b36f 803d 0ff9 1bb9 1b80 d1bd
000001e0: 7149 a939 257f 8b3d a59a 0fbe 1c31 9dbd
000001f0: feae 003c 1574 a8bd 2475 d4bc be53 88bc
00000200: e2b3 c8bd 1193 123e 148b 333e 6738 cc3d
00000210: e793 0fbe 094a 063e 0497 febd b71b 9abc
00000220: d821 163c 05ab 463e 96cc 573e 1840 073e
00000230: 93fd 163e cb07 753d 99aa 593e f256 7b3d
00000240: b29c 8dbc cc77 68bd c81b 22be b78c d6bd
00000250: ba41 80bd ac9f a23d d804 073d b4ae c1bc
00000260: b2a0 4abd 130c a7bd de86 11be 7bc0 f23d
00000270: 914a 0a3c af07 1dbd 4a45 06be 2d7f cf3d
00000280: e2da e6bd d905 ae3d 2544 9fbd a103 823d
00000290: 3727 283e 8e20 c73d f943 c73d d35a 103d
000002a0: 4f07 f03d 2e1f ef3d b54c 033c 213a f83d
000002b0: 670c 293e 4384 7f3d ea5a 043d aef6 6e3d
000002c0: e4a6 d53d 2a5f 8bbd 4942 8a3e fa98 a4bd
000002d0: 6762 dcbc a6c7 073c 7513 9cbb bc5a 8d3d
000002e0: 0fc8 273c 43cb f1bc 455e 843d b28f 0c3c
000002f0: 0dd8 5abd 7b6c 1bbe b06e 7a3a 6094 18bd
00000300: 9ce3 9d3d 3b64 d03d 750c d33d 6050 0ebe
00000310: 1306 423e 6a60 13bd 87e2 f23c aeb7 c4bd
00000320: 50ab 9dbd bb65 2cbc 7617 54be 5951 3abe
00000330: 6505 f23d 72f8 91bd a428 b8bd c309 8abc
00000340: 8ad2 9ebd e917 6f3d 7d05 9c3e 41a6 08bd
00000350: 8927 98be fa77 943c 3502 8a3d 17c3 443d
00000360: a1ac d8bd a53c c4bd a039 b93e 3355 b3bb
00000370: 3fd6 bdbd 7a1d 2dbe ec94 68bd 972d 5ebe
00000380: d8d1 ee3d f704 d8bd 267d c23d 616c aabd
00000390: c97e 913d 8b99 1b3d b138 9dbb 7c52 6e3d
000003a0: 69ba f1bd fc07 0fbe 423f 52bd bb3d cc3d
000003b0: 8c2c 5d3d 8476 65bc 6ee0 11be 1a0c cdbd
000003c0: 5b23 c83d 9c60 54be 66be 5fbe 1b3c 9cbd
000003d0: 58a5 053e 2464 bf3a b64d 2fbe 0c62 6f3c
000003e0: d0d3 5dbd 8c6f a6bd 101e c43c 19ab 97bd
000003f0: a213 e4bd f2c3 93bd 7835 153d 885f a93d

network.9.bias f4 [64]
0.15196632 -0.13959244 0.15730052 0.17299424 -0.1270447 0.18980257 0.088925 0.154946
0.164537 -0.052594926 0.1598326 0.16016516 -0.05668864 0.14325131 0.053826727 0.054693755
0.015275744 -0.051239066 0.17889129 -0.14465311 -0.091936916 0.1708217 -0.062245455 0.052215382
-0.11023501 0.038308658 0.073555805 0.11180797 0.07334552 0.15477322 0.15255383 0.2585985
-0.12437131 0.026280794 -0.03252851 -0.06907698 0.20679761 0.060246293 -0.10512121 -0.048084166
0.09981228 -0.13178183 0.17883307 0.14251785 0.046608634 -0.09701863 0.006018517 0.08096275
0.08277734 0.18323039 -0.029558009 0.18865196 0.16053341 0.1236538 -0.10768151 0.028835233
0.042725828 0.1026883 0.095646806 0.06030737 0.21495876 0.22062437 0.03457726 0.2018967
00000000: 0f9d 1b3e 52f1 0ebe 6313 213e 6725 313e
00000010: 0118 02be 9b5b 423e 4f1e b63d 2aaa 1e3e
00000020: 637c 283e c76d 57bd 28ab 233e 5602 243e
00000030: 5932 68bd 79b0 123e 6a79 5c3d 8f06 603d
00000040: 1d47 7a3c 0ee0 51bd 472f 373e f21f 14be
00000050: 6c49 bcbd e2eb 2e3e 17f5 7ebd ccdf 553d
00000060: e5c2 e1bd 8ae9 1c3d 6da4 963d 94fb e43d
00000070: 2d36 963d df7c 1e3e 1237 1c3e 0667 843e
00000080: 63b6 febd d24a d73c 9d3c 05bd 3b78 8dbd
00000090: c1c2 533e d1c4 763d ca49 d7bd e7f3 44bd
000000a0: 616a cc3d d1f1 06be 0420 373e 33f0 113e
000000b0: b2e8 3e3d b4b1 c6bd fb36 c53b cccf a53d
000000c0: 2b87 a93d bfa0 3b3e a323 f2bc fb2d 413e
000000d0: df62 243e 343e fd3d 2088 dcbd de37 ec3c
000000e0: 4701 2f3d 3e4e d23d 79e2 c33d dc04 773d
000000f0: 261e 5c3e 5beb 613e e3a0 0d3d 02be 4e3e

network.12.weight f4 [1, 64]
-0.09037752 0.01175404 -0.07382028 0.29924747 -0.002960592 -0.09404034 -0.11863808 -0.10571405
-0.12289186 0.069682166 0.24234752 -0.080353156 -0.092165396 -0.18873027 -0.13642205 -0.09576391
0.022917286 0.060783062 -0.082856074 -0.006400108 0.003480167 0.23886527 -0.004042269 -0.13398609
0.041445326 -0.12551995 -0.1016962 -0.10361232 -0.1323988 -0.11965791 -0.11138928 0.23060061
0.006150908 0.06803647 -0.0069835726 -0.06683028 -0.0946698 -0.11945825 0.004155087 0.0021188015
-0.1411275 0.045000747 -0.106885426 0.16967572 -0.077759035 0.0032280027 -0.14140335 -0.12498416
0.10477902 -0.092380665 -0.015178618 0.20933916 -0.097680025 -0.13133901 -0.084556684 -0.07042625
0.03703111 -0.12986213 -0.06737479 -0.111779094 0.21847193 -0.08706109 -0.08794004 0.27893582
00000000: d917 b9bd 0494 403c 162f 97bd f736 993e
00000010: 7e06 42bb 3998 c0bd 86f8 f2bd 9c80 d8bd
00000020: baae fbbd 86b5 8e3d f329 783e 3290 a4bd
00000030: 36c1 bcbd 8242 41be 39b2 0bbe de1f c4bd
00000040: 08bd bb3c a9f7 783d 72b0 a9bd ffb7 d1bb
00000050: 8313 643b 1999 743e 0375 84bb a633 09be
00000060: 93c2 293d 4d88 00be 1946 d0bd b232 d4bd
00000070: 8d93 07be 350f f5bd 1020 e4bd 9122 6c3e
00000080: 8e8d c93b b456 8b3d 74d6 e4bb 50de 88bd
00000090: 3de2 c1bd 87a6 f4bd 6527 883b 97db 0a3b
000000a0: ba83 10be b452 383d bfe6 dabd 79bf 2d3e
000000b0: 2140 9fbd e68c 533b 0acc 10be b2f7 ffbd
000000c0: 6296 d63d 1332 bdbd bdaf 78bc 015d 563e
000000d0: 770c c8bd bc7d 06be 0e2c adbd a33b 90bd
000000e0: efad 173d 94fa 04be cbfb 89bd 70ec e4bd
000000f0: 1bb7 5f3e 164d b2bd e819 b4bd add0 8e3e
